…
{"idx": 92, "scratchpad_format": "def test_base_model_can_be_adapter_v2_loaded(name):\n    from lit_gpt.adapter_v2 import GPT as AdapterV2GPT # [STATE] AdapterV2GPT = <class 'lit_gpt.adapter_v2.GPT'> [/STATE]\n    from lit_gpt.adapter_v2 import adapter_filter # [STATE] adapter_filter = <function adapter_filter at 0x7f801db68af0> [/STATE]\n    from lit_gpt.model import GPT as BaseGPT # [STATE] BaseGPT = <class 'lit_gpt.model.GPT'> [/STATE]\n\n    kwargs = {\"n_layer\": 2, \"n_head\": 8, \"n_embd\": 16, \"padded_vocab_size\": 32} # [STATE] kwargs = {'n_layer': 2, 'n_head': 8, 'n_embd': 16, 'padded_vocab_size': 32} [/STATE]\n    base_model = BaseGPT.from_name(name, **kwargs) # [STATE] base_model = GPT(  (lm_head): Linear(in_features=16, out_features=32, bias=False)  (transformer): ModuleDict(    (wte): Embedding(32, 16)    (h): ModuleList(      (0-1): 2 x Block(        (norm_1): LayerNorm((16,), eps=1e-05, elementwise_affine=True)        (attn): CausalSelfAttention(          (attn): Linear(in_features=16, out_features=48, bias=True)          (proj): Linear(in_features=16, out_features=16, bias=True)        )        (norm_2): LayerNorm((16,), eps=1e-05, elementwise_affine=True)        (mlp): GptNeoxMLP(          (fc): Linear(in_features=16, out_features=64, bias=True)          (proj): Linear(in_features=64, out_features=16, bias=True)        )      )    )    (ln_f): LayerNorm((16,), eps=1e-05, elementwise_affine=True)  )) [/STATE]\n    base_model_state_dict = base_model.state_dict() # [STATE] base_model_state_dict = OrderedDict([('lm_head.weight', tensor([[… ...… )), ('transformer.h.1.attn.proj.bias', tensor([… )), ('transformer.h.1.norm_2.weight', tensor([1., 1., 1., 1., 1., 1., 1., 1., 1., 1., 1., 1., 1., 1., 1., 1.])), ('transformer.h.1.norm_2.bias', tensor([0., 0.,
…
.0012,  0.0383,  ..., -0.0417, -0.0944, -0.0468],        [ 0.0752, -0.0184,  0.0511,  ..., -0.0576, -0.0293,  0.0188],        [-0.0496, -0.0871, -0.0883,  ..., -0.1221,  0.0080,  0.0647]])), ('transformer.h.1.mlp.proj.bias', tensor([… )), ('transformer.ln_f.weight', tensor([1., 1., 1., 1., 1., 1., 1., 1., 1., 1., 1., 1., 1., 1., 1., 1.])), ('transformer.ln_f.bias', tensor([0., 0., 0., 0., 0., 0., 0., 0., 0., 0., 0., 0., 0., 0., 0., 0.]))]) [/STATE]\n    lora_model = AdapterV2GPT.from_name(name, **kwargs, adapter_start_layer=0) # [STATE] lora_model = GPT(  (lm_head): AdapterV2Linear(    (linear): Linear(in_features=16, out_features=32, bias=False)  )  (transformer): ModuleDict(    (wte): Embedding(32, 16)    (h): ModuleList(      (0-1): 2 x Block(        (norm_1): LayerNorm((16,), eps=1e-05, elementwise_affine=True)        (attn): CausalSelfAttention(          (attn): AdapterV2Linear(            (linear): Linear(in_features=16, out_features=48, bias=True)          )          (proj): AdapterV2Linear(            (linear): Linear(in_features=16, out_features=16, bias=True)          )          (adapter_wte): Embedding(10, 16)        )        (norm_2): LayerNorm((16,), eps=1e-05, elementwise_affine=True)        (mlp): GptNeoxMLP(          (fc): AdapterV2Linear(            (linear): Linear(in_features=16, out_features=64, bias=True)          )          (proj): AdapterV2Linear(            (linear): Linear(in_features=64, out_features=16, bias=True)          )        )      )    )    (ln_f): LayerNorm((16,), eps=1e-05, elementwise_affine=True)  )) [/STATE]\n    keys = lora_model.load_state_dict(base_model_state_dict, strict=False) # [STATE] keys = _IncompatibleKeys(missing_keys=['lm_head.adapter_bias', 'lm_head.adapter_scale', 'transformer.h.0.attn.gating_factor', 'transformer.h.0.attn.attn.adapter_bias', 'transformer.h.0.attn.attn.adapter_scale', 'transformer.h.0.attn.proj.adapter_bias', 'tran
…
