…
ular", "value < -10": "Negative Large"}}
{"Programming Language": "Python", "Statement Type": "Constant Assignment", "Source Code": "def num_parameters(module: nn.Module, requires_grad: Optional[bool] = None) -> int:\n    total = 0\n    for p in module.parameters():\n        if requires_grad is None or p.requires_grad == requires_grad:\n            if hasattr(p, \"quant_state\"):\n                # bitsandbytes 4bit layer support\n                total += math.prod(p.quant_state[1])\n            else:\n                total += p.numel()\n    return total\n\nnum_parameters(module=GPT(  (lm_head): Linear(in_features=8, out_features=8, bias=False)  (transformer): ModuleDict(    (wte): Embedding(8, 8)    (h): ModuleList(      (0-1): 2 x Block(        (norm_1): LayerNorm((8,), eps=1e-05, elementwise_affine=True)        (attn): CausalSelfAttention(          (attn): Linear(in_features=8, out_features=24, bias=True)          (proj): Linear(in_features=8, out_features=8, bias=True)          (adapter_wte): Embedding(10, 8)        )        (norm_2): LayerNorm((8,), eps=1e-05, elementwise_affine=True)        (mlp): GptNeoxMLP(          (fc): Linear(in_features=8, out_features=32, bias=True)          (proj): Linear(in_features=32, out_features=8, bias=True)        )      )    )    (ln_f): LayerNorm((8,), eps=1e-05, elementwise_affine=True)  )), requires_grad=True)", "Selected Statement": "total = 0", "Function Input": {"module": "GPT(  (lm_head): Linear(in_features=8, out_features=8, bias=False)  (transformer): ModuleDict(    (wte): Embedding(8, 8)    (h): ModuleList(      (0-1): 2 x Block(        (norm_1): LayerNorm((8,), eps=1e-05, elementwise_affine=True)        (attn): CausalSelfAttention(          (attn): Linear(in_features=8, out_features=24, bias=True)          (proj): Linear(in_features=8, out_features=8, bias=True)          (adapter_wte): Embedding(10, 8)        )        (norm_2): LayerNorm((8,), eps=1e-05, elementwise_affine=True)        (mlp): GptNeoxMLP(          (fc): Linear(in_features=8, out_features=32, bias=True)          (proj): Linear(in_features=32, out_features=8, bias=True)        )      )    )    (ln_f): LayerNorm((8,), eps=1e-05, elementwise_affine=True)  ))", "requires_grad": "True"}, "Variable Values Before Statement": {"Constant": "0"}, "Value After Statement Execution": "0", "Variable States During Runtime": {"module": [[1, "GPT(  (lm_head): Linear(in_features=8, out_features=8, bias=False)  (transformer): ModuleDict(    (wte): Embedding(8, 8)    (h): ModuleList(      (0-1): 2 x Block(        (norm_1): LayerNorm((8,), eps=1e-05, elementwise_affine=True)        (attn): CausalSelfAttention(          (attn): Linear(in_features=8, out_features=24, bias=True)          (proj): Linear(in_features=8, out_features=8, bias=True)          (adapter_wte): Embedding(10, 8)        )        (norm_2): LayerNorm((8,), eps=1e-05, elementwise_affine=True)        (mlp): GptNeoxMLP(          (fc): Linear(in_features=8, out_features=32, bias=True)          (proj): Linear(in_features=32, out_features=8, bias=True)        )      )    )    (ln_f): LayerNorm((8,), eps=1e-05, elementwise_affine=True)  ))"]], "requires_grad": [[1, "True"]], "total": [[2.0, "0"], [9.0, "4"], [9.0, "84"], [9.0, "88"], [9.0, "168"]], "p": [[3.0, "Parameter containing:tensor([[ … device='cuda:0')"], [3.0, "Parameter containing:tensor([[… device='cuda:0')"], [3.0, "Parameter containing:tensor([1., 1., 1., 1., 1., 1., 1., 1.], device='cuda:0')"], [3.0, "Parameter containing:t
…
