…
es,\n                    kernel_size=1,\n                    stride=1,\n                    padding=0,\n                    groups=1,\n                    inference_mode=self.inference_mode,\n                    use_se=use_se,\n                    num_conv_branches=self.num_conv_branches,\n                )\n            )\n            self.in_planes = planes\n            self.cur_layer_idx += 1\n        return nn.Sequential(*blocks)\n\n_make_stage(self=MobileOne(  (stage0): MobileOneBlock(    (se): Identity()    (activation): ReLU()    (rbr_conv): ModuleList(      (0): Sequential(        (conv): Conv2d(3, 48, kernel_size=(3, 3), stride=(2, 2), padding=(1, 1), bias=False)        (bn): BatchNorm2d(48, eps=1e-05, momentum=0.1, affine=True, track_running_stats=True)      )    )    (rbr_scale): Sequential(      (conv): Conv2d(3, 48, kernel_size=(1, 1), stride=(2, 2), bias=False)      (bn): BatchNorm2d(48, eps=1e-05, momentum=0.1, affine=True, track_running_stats=True)    )  )), planes=48, num_blocks=2, num_se_blocks=0, self._backward_hooks=OrderedDict(), self._backward_pre_hooks=OrderedDict(), self._buffers=OrderedDict(), self._depth=3, self._forward_hooks=OrderedDict(), self._forward_hooks_always_called=OrderedDict(), self._forward_hooks_with_kwargs=OrderedDict(), self._forward_pre_hooks=OrderedDict(), self._forward_pre_hooks_with_kwargs=OrderedDict(), self._in_channels=3, self._is_full_backward_hook=None, self._load_state_dict_post_hooks=OrderedDict(), self._load_state_dict_pre_hooks=OrderedDict(), self._modules=OrderedDict([('stage0', MobileOneBlock(  (se): Identity()  (activation): ReLU()  (rbr_conv): ModuleList(    (0): Sequential(      (conv): Conv2d(3, 48, kernel_size=(3, 3), stride=(2, 2), padding=(1, 1), bias=False)      (bn): BatchNorm2d(48, eps=1e-05, momentum=0.1, affine=True, track_running_stats=True)    )  )  (rbr_scale): Sequential(    (conv): Conv2d(3, 48, kernel_size=(1, 1), stride=(2, 2), bias=False)    (bn): BatchNorm2d(48, eps=1e-05, momentum=0.1, affine=True, track_running_stats=True)  )))]), self._non_persistent_buffers_set=set(), self._out_channels=(3, 48, 48, 128, 256, 1024), self._parameters=OrderedDict(), self._state_dict_hooks=OrderedDict(), self._state_dict_pre_hooks=OrderedDict(), self.cur_layer_idx=1, self.in_planes=48, self.inference_mode=False, self.num_conv_branches=4, self.training=True, self.use_se=False)", "Selected Statement": "if ix >= (num_blocks - num_se_blocks):", "Function Input": {"self": "MobileOne(  (stage0): MobileOneBlock(    (se): Identity()    (activation): ReLU()    (rbr_conv): ModuleList(      (0): Sequential(        (conv): Conv2d(3, 48, kernel_size=(3, 3), stride=(2, 2), padding=(1, 1), bias=False)        (bn): BatchNorm2d(48, eps=1e-05, momentum=0.1, affine=True, track_running_stats=True)      )    )    (rbr_scale): Sequential(      (conv): Conv2d(3, 48, kernel_size=(1, 1), stride=(2, 2), bias=False)      (bn): BatchNorm2d(48, eps=1e-05, momentum=0.1, affine=True, track_running_stats=True)    )  ))", "planes": "48", "num_blocks": "2", "num_se_blocks": "0", "self._backward_hooks": "OrderedDict()", "self._backward_pre_hooks": "OrderedDict()", "self._buffers": "OrderedDict()", "self._depth": "3", "self._forward_hooks": "OrderedDict()", "self._forward_hooks_always_called": "OrderedDict()", "self._forward_hooks_with_kwargs": "OrderedDict()", "self._forward_pre_hooks": "OrderedDict()", "self._forward_pre_hooks_with_kwargs": "OrderedDict()", "self._in_channels": "3", "self._is_full_backward_hook": "None", "self._load_state_dict_post_hooks": "OrderedDict()", "self._load_state_dict_pre_hooks": "OrderedDict()", "self._modules": "OrderedDict([('stage0', MobileOneBlock(  (se): Identity()  (activation): ReLU()  (rbr_conv): ModuleList(    (0): Sequential(      (conv): Conv2d(3, 48, kernel_size=(3, 3), stride=(2, 2), padding=(1, 1), bias=False)      (bn): BatchNorm2d(48, eps=1e-05, momentum=0.1, affine=True, track_running_stats=True)    )  )  (rbr_scale): Sequential(    (conv): Conv2d(3, 48, kernel_size=(1, 1), stride=(2, 2), bias=False)    (bn): BatchNorm2d(48, eps=1e-05, momentum=0.1, affine=True, track_running_stats=True)  )))])", "self._non_persistent_buffers_set": "set()", "self._out_channels": "(3, 48, 48, 128, 256, 1024)", "self._parameters": "OrderedDict()", "self._state_dict_hooks": "OrderedDict()", "self._state_dict_pre_hooks": "OrderedDict()", "self.cur_layer_idx": "1", "self.in_planes": "48", "self.inference_mode": "False", "self.num_conv_branches": "4", "self.training": "True", "self.use_se": "False"}, "Variable Values Before Statement": {"ix": "1"}, "Value After Statement Execution": "No", "Variable States During Runtime": {"self": [[1, "MobileOne(  (stage0): MobileOneBlock(    (se): Identity()    (activation): ReLU()    (rbr_conv): ModuleList(      (0): Sequential(        (conv): Conv2d(3, 48, kernel_size=(3, 3), stride=(2, 2), padding=(1, 1), bias=False)        (bn): BatchNorm2d(48, eps=1e-05, momentum=0.1, affine=True, track_running_stats=True)      )    )    (rbr_scale): Sequential(      (conv): Conv2d(3, 48, kernel_size=(1, 1), stride=(2, 2), bias=False)      (bn): BatchNorm2d(48, eps=1e-05, momentum=0.1, affine=True, track_running_stats=True)    )  ))"]], "planes": [[1, "48"]], "num_blocks": [[1, "2"]], "num_se_blocks": [[1, "0"]], "self._backward_hooks": [[1, "OrderedDict()"]], "self._backward_pre_hooks": [[1, "OrderedDict()"]], "self._buffers": [[1, "OrderedDict()"]], "self._depth": [[1, "3"]], "self._forward_hooks": [[1, "OrderedDict()"]], "self._forward_hooks_always_called": [[1, "OrderedDict()"]], "self._forward_hooks_with_kwargs": [[1, "OrderedDict()"]], "self._forward_pre_hooks": [[1, "OrderedDict()"]], "self._forward_pre_hooks_with_kwargs": [[1, "OrderedDict()"]], "self._in_channels": [[1, "3"]], "self._is_full_backward_hook": [[1, "None"]], "self._load_state_dict_post_hooks": [[1, "OrderedDict()"]], "self._load_state_dict_pre_hooks": [[1, "OrderedDict()"]], "self._modules": [[1, "OrderedDict([('stage0', MobileOneBlock(  (se): Identity()  (activation): ReLU()  (rbr_conv): ModuleList(    (0): Sequential(      (conv): Conv2d(3, 48, kernel_size=(3, 3), stride=(2, 2), padding=(1, 1), bias=False)      (bn): BatchNorm2d(48, eps=1e-05, momentum=0.1, affine=True, track_running_stats=True)    )  )  (rbr_scale): Sequential(    (conv): Conv2d(3, 48, kernel_size=(1, 1), stride=(2, 2), bias=False)    (bn): BatchNorm2d(48, eps=1e-05, momentum=0.1, affine=True, track_running_stats=True)  )))])"]], "self._non_persistent_buffers_set": [[1, "set()"]], "self._out_channels": [[1, "(3, 48, 48, 128, 256, 1024)"]], "self._parameters": [[1, "OrderedDict()"]], "self._state_dict_hooks": [[1, "OrderedDict()"]], "self._state_dict_pre_hooks": [[1, "OrderedDict()"]], "self.cur_layer_idx": [[1, "1"], [48.0, "2"], [48.0, "3"]], "self.in_planes": [[1, "48"]], "self.inference_mode": [[1, "False"]], "self.num_conv_branches": [[1, "4"]], "self.training": [[1, "True"]], "self.use_se": [[1, "False"]], "strides": [[10.0, "[2, 1]"]], "blocks": [[11.0, "[]"], [20.0, "[MobileOneBlock(  (se): Identity()  (activation): ReLU()  (rbr_conv): ModuleList(    (0-3): 4 x Sequential(      (conv): Conv2d(48, 48, kernel_size=(3, 3), stride=(2, 2), padding=(1, 1), groups=48, bias=False)      (bn): BatchNorm2d(48, eps=1e-05, momentum=0.1, affine=True, track_running_stats=True)    )  )  (rbr_scale): Sequential(    (conv): Conv2d(48, 48, kernel_size=(1, 1), stride=(2, 2), groups=48, bias=False)    (bn): BatchNorm2d(48, eps=1e-05, momentum=0.1, affine=True, track_running_stats=True)  ))]"], [34.0, "[MobileOneBlock(  (se): Identity()  (activation): ReLU()  (rbr_conv): ModuleList(    (0-3): 4 x Sequential(      (conv): Conv2d(48, 48, kernel_size=(3, 3), stride=(2, 2), padding=(1, 1), groups=48, bias=False)      (bn): BatchNorm2d(48, eps=1e-05, momentum=0.1, affine=True, track_running_stats=True)    )  )  (rbr_scale): Sequential(    (conv): Conv2d(48, 48, kernel_size=(1, 1), stride=(2, 2), groups=48, bias=False)    (bn): BatchNorm2d(48, eps=1e-05, momentum=0.1, affine=True, track_running_stats=True)  )), MobileOneBlock(  (se): Identity()  (activation): ReLU()  (rbr_skip): BatchNorm2d(48, eps=1e-05, momentum=0.1, affine=True, track_running_stats=True)  (rbr_conv): ModuleList(    (0-3): 4 x Sequential(      (conv): Conv2d(48, 48, kernel_size=(1, 1), stride=(1, 1), bias=False)      (bn): BatchNorm2d(48, eps=1e-05, momentum=0.1, affine=True, track_running_stats=True)    )  ))]"], [20.0, "[MobileOneBlock(  (se): Identity()  (activation): ReLU()  (rbr_conv): ModuleList(    (0-3): 4 x Sequential(      (conv): Conv2d(48, 48, kernel_size=(3, 3), stride=(2, 2), padding=(1, 1), groups=48, bias=False)      (bn): BatchNorm2d(48, eps=1e-05, momentum=0.1, affine=True, track_running_stats=True)    )  )  (rbr_scale): Sequential(    (conv): Conv2d(48, 48, kernel_size=(1, 1), stride=(2, 2), groups=48, bias=False)    (bn): BatchNorm2d(48, eps=1e-05, momentum=0.1, affine=True, track_running_stats=True)  )), MobileOneBlock(  (se): Identity()  (activation): ReLU()  (rbr_skip): BatchNorm2d(48, eps=1e-05, momentum=0.1, affine=True, track_running_stats=True)  (rbr_conv): ModuleList(    (0-3): 4 x Sequential(      (conv): Conv2d(48, 48, kernel_size=(1, 1), stride=(1, 1), bias=False)      (bn): BatchNorm2d(48, eps=1e-05, momentum=0.1, affine=True, track_running_stats=True)    )  )), MobileOneBlock(  (se): Identity()  (activation): ReLU()  (rbr_skip): BatchNorm2d(48, eps=1e-05, momentum=0.1, affine=True, track_running_stats=True)  (rbr_conv): ModuleList(    (0-3): 4 x Sequential(      (conv): Conv2d(48, 48, kernel_size=(3, 3), stride=(1, 1), padding=(1, 1), groups=48, bias=False)      (bn): BatchNorm2d(48, eps=1e-05, momentum=0.1, affine=True, track_running_stats=True)    )  )  (rbr_scale): Sequential(    (conv): Conv2d(48, 48, kernel_size=(1, 1), stride=(1, 1), groups=48, bias=False)    (bn): BatchNorm2d(48, eps=1e-05, momentum=0.1, affine=True, track_running_stats=True)  ))]"], [34.0, "[MobileOneBlock(  (se): Identity()  (activation): ReLU()  (rbr_conv): ModuleList(    (0-3): 4 x Sequential(      (conv): Conv2d(48, 48, kernel_size=(3, 3), stride=(2, 2), padding=(1, 1), groups=48, bias=False)      (bn): BatchNorm2d(48, eps=1e-05, momentum=0.1, affine=True, track_running_stats=True)    )  )  (rbr_scale): Sequential(    (conv): Conv2d(48, 48, kernel_size=(1, 1), stride=(2, 2), groups=48, bias=False)    (bn): BatchNorm2d(48, eps=1e-05, momentum=0.1, affine=True, track_running_stats=True)  )), MobileOneBlock(  (se): Identity()  (activation): ReLU()  (rbr_skip): BatchNorm2d(48, eps=1e-05, momentum=0.1, affine=True, track_running_stats=True)  (rbr_conv): ModuleList(    (0-3): 4 x Sequential(      (conv): Conv2d(48, 48, kernel_size=(1, 1), stride=(1, 1), bias=False)      (bn): BatchNorm2d(48, eps=1e-05, momentum=0.1, affine=True, track_running_stats=True)    )  )), MobileOneBlock(  (se): Identity()  (activation): ReLU()  (rbr_skip): BatchNorm2d(48, eps=1e-05, momentum=0.1, affine=True, track_running_stats=True)  (rbr_conv): ModuleList(    (0-3): 4 x Sequential(      (conv): Conv2d(48, 48, kernel_size=(3, 3), stride=(1, 1), padding=(1, 1), groups=48, bias=False)      (bn): BatchNorm2d(48, eps=1e-05, momentum=0.1, affine=True, track_running_stats=True)    )  )  (rbr_scale): Sequential(    (conv): Conv2d(48, 48, kernel_size=(1, 1), stride=(1, 1), groups=48, bias=False)    (bn): BatchNorm2d(48, eps=1e-05, momentum=0.1, affine=True, track_running_stats=True)  )), MobileOneBlock(  (se): Identity()  (activation): ReLU()  (rbr_skip): BatchNorm2d(48, eps=1e-05, momentum=0.1, affine=True, track_running_stats=True)  (rbr_conv): ModuleList(    (0-3): 4 x Sequential(      (conv): Conv2d(48, 48, kernel_size=(1, 1), stride=(1, 1), bias=False)      (bn): BatchNorm2d(48, eps=1e-05, momentum=0.1, affine=True, track_running_stats=True)    )  ))]"]], "ix": [[12.0, "0"], [12.0, "1"]], "stride": [[12.0, "2"], [12.0, "1"]], "use_se": [[13.0, "False"]]}, "Program Information": "Project Name: qubvel+segmentation_models.pytorch", "idx": 153, "quantized value": "Alphabetic String", "mapping_info": {"len(value) == 0": "Empty String", "len(value) > 0 and value.isalpha()": "Alphabetic String", "len(value) > 0 and value.isdigit()": "Numeric String", "len(value) > 0 and not (value.isalpha() or value.isdigit())": "Mixed String"}}
…
"idx": 168, "quantized value": "Non-Empty tuple", "mapping_info": {"len(value) == 0": "Empty tuple", "len(value) > 0": "Non-Empty tuple"}}
{"Programming Language": "Python", "Statement Type": "API", "Source Code": "def init_conv_(self, conv):\n        o, i, h, w = conv.weight.shape\n        conv_weight = torch.empty(o // 4, i, h, w)\n        nn.init.kaiming_uniform_(conv_weight)\n        conv_weight = repeat(conv_weight, 'o ... -> (o 4) ...')\n\n        conv.weight.data.copy_(conv_weight)\n        nn.init.zeros_(conv.bias.data)\n\ninit_conv_(self=PixelShuffleUpsample(  (net): Sequential(    (0): Conv2d(8, 32, kernel_size=(1, 1), stride=(1, 1))    (1): SiLU()    (2): PixelShuffle(upscale_factor=2)  )), conv=Conv2d(8, 32, kernel_size=(1, 1), stride=(1, 1)), self._backward_hooks=OrderedDict(), self._backward_pre_hooks=OrderedDict(), self._buffers=OrderedDict(), self._forward_hooks=OrderedDict(), self._forward_hooks_always_called=OrderedDict(), self._forward_hooks_with_kwargs=OrderedDict(), self._forward_pre_hooks=OrderedDict(), self._forward_pre_hooks_with_kwargs=OrderedDict(), self._is_full_backward_hook=None, self._load_state_dict_post_hooks=OrderedDict(), self._load_state_dict_pre_hooks=OrderedDict(), self._modules=OrderedDict([('net', Sequential(  (0): Conv2d(8, 32, kernel_size=(1, 1), stride=(1, 1))  (1): SiLU()  (2): PixelShuffle(upscale_factor=2)))]), self._non_persistent_buffers_set=set(), self._parameters=OrderedDict(), self._state_dict_hooks=OrderedDict(), self._state_dict_pre_hooks=OrderedDict(), self.training=True)", "Selected Statement": "nn.init.kaiming_uniform_(conv_weight)", "Function Input": {"self": "PixelShuffleUpsample(  (net): Sequential(    (0): Conv2d(8, 32, kernel_size=(1, 1), stride=(1, 1))    (1): SiLU()    (2): PixelShuffle(upscale_factor=2)  ))", "conv": "Conv2d(8, 32, kernel_size=(1, 1), stride=(1, 1))", "self._backward_hooks": "OrderedDict()", "self._backward_pre_hooks": "OrderedDict()", "self._buffers": "OrderedDict()", "self._forward_hooks": "OrderedDict()", "self._forward_hooks_always_called": "OrderedDict()", "self._forward_hooks_with_kwargs": "OrderedDict()", "self._forward_pre_hooks": "OrderedDict()", "self._forward_pre_hooks_with_kwargs": "OrderedDict()", "self._is_full_backward_hook": "None", "self._load_state_dict_post_hooks": "OrderedDict()", "self._load_state_dict_pre_hooks": "OrderedDict()", "self._modules": "OrderedDict([('net', Sequential(  (0): Conv2d(8, 32, kernel_size=(1, 1), stride=(1, 1))  (1): SiLU()  (2): PixelShuffle(upscale_factor=2)))])", "self._non_persistent_buffers_set": "set()", "self._parameters": "OrderedDict()", "self._state_dict_hooks": "OrderedDict()", "self._state_dict_pre_hooks": "OrderedDict()", "self.training": "True"}, "Variable Values Before Statement": {"conv_weight": "tensor([[[[ … )"}, "Value After Statement Execution": "tensor([[[[ … )", "Variable States During Runtime": {"self": [[1, "PixelShuffleUpsample(  (net): Sequential(    (0): Conv2d(8, 32, kernel_size=(1, 1), stride=(1, 1))    (1): SiLU()    (2): PixelShuffle(upscale_factor=2)  ))"]], "conv": [[1, "Conv2d(8, 32, kernel_size=(1, 1), stride=(1, 1))"]], "self._backward_hooks": [[1, "OrderedDict()"]], "self._backward_pre_hooks": [[1, "OrderedDict()"]], "self._buffers": [[1, "OrderedDict()"]], "self._forward_hooks": [[1, "OrderedDict()"]], "self._forward_hooks_always_called": [[1, "OrderedDict()"]], "self._forward_hooks_with_kwargs": [[1, "OrderedDict()"]], "self._forward_pre_hooks": [[1, "OrderedDict()"]], "self._forward_pre_hooks_with_kwargs": [[1, "OrderedDict()"]], "self._is_full_backward_hook": [[1, "None"]], "self._load_state_dict_post_hooks": [[1, "OrderedDict()"]], "self._load_state_dict_pre_hooks": [[1, "OrderedDict()"]], "self._modules": [[1, "OrderedDict([('net', Sequential(  (0): Conv2d(8, 32, kernel_size=(1, 1), stride=(1, 1))  (1): SiLU()  (2): PixelShuffle(upscale_factor=2)))])"]], "self._non_persistent_buffers_set": [[1, "set()"]], "self._parameters": [[1, "OrderedDict()"]], "self._state_dict_hooks": [[1, "OrderedDict()"]], "self._state_dict_pre_hooks": [[1, "OrderedDict()"]], "self.training": [[1, "True"]], "o": [[2.0, "32"]], "i": [[2.0, "8"]], "h": [[2.0, "1"]], "w": [[2.0
…
f.print_interval": "10", "self.save_history_ckpt": "True", "self.scheduler": "'yoloxwarmcos'", "self.seed": "None", "self.shear": "2.0", "self.test_ann": "'instances_test2017.json'", "self.test_conf": "0.01", "self.test_size": "(640, 640)", "self.train_ann": "'instances_train2017.json'", "self.translate": "0.1", "self.val_ann": "'instances_val2017.json'", "self.warmup_epochs": "5", "self.warmup_lr": "0", "self.weight_decay": "0.0005", "self.width": "0.5"}, "Variable Values Before Statement": {"backbone": "YOLOPAFPN(  (backbone): CSPDarknet(    (stem): Focus(      (conv): BaseConv(        (conv): Conv2d(12, 32, kernel_size=(3, 3), stride=(1, 1), padding=(1, 1), bias=False)        (bn): BatchNorm2d(32, eps=1e-05, momentum=0.1, affine=True, track_running_stats=True)        (act): SiLU(inplace=True)      )    )    (dark2): Sequential(      (0): BaseConv(        (conv): Conv2d(32, 64, kernel_size=(3, 3), stride=(2, 2), padding=(1, 1), bias=False)        (bn): BatchNorm2d(64, eps=1e-05, momentum=0.1, affine=True, track_running_stats=True)        (act): SiLU(inplace=True)      )      (1): CSPLayer(        (conv1): BaseConv(          (conv): Conv2d(64, 32, kernel_size=(1, 1), stride=(1, 1), bias=False)          (bn): BatchNorm2d(32, eps=1e-05, momentum=0.1, affine=True, track_running_stats=True)          (act): SiLU(inplace=True)        )        (conv2): BaseConv(          (conv): Conv2d(64, 32, kernel_size=(1, 1), stride=(1, 1), bias=False)          (bn): BatchNorm2d(32, eps=1e-05, momentum=0.1, affine=True, track_running_stats=True)          (act): SiLU(inplace=True)        )        (conv3): BaseConv(          (conv): Conv2d(64, 64, kernel_size=(1, 1), stride=(1, 1), bias=False)          (bn): BatchNorm2d(64, eps=1e-05, momentum=0.1, affine=True, track_running_stats=True)          (act): SiLU(inplace=True)        )        (m): Sequential(          (0): Bottleneck(            (conv1): BaseConv(              (conv): Conv2d(32, 32, kernel_size=(1, 1), stride=(1, 1), bias=False)              (bn): BatchNorm2d(32, eps=1e-05, momentum=0.1, affine=True, track_running_stats=True)              (act): SiLU(inplace=True)            )            (conv2): BaseConv(              (conv): Conv2d(32, 32, kernel_size=(3, 3), stride=(1, 1), padding=(1, 1), bias=False)              (bn): BatchNorm2d(32, eps=1e-05, momentum=0.1, affine=True, track_running_stats=True)              (act): SiLU(inplace=True)            )          )        )      )    )    (dark3): Sequential(      (0): BaseConv(        (conv): Conv2d(64, 128, kernel_size=(3, 3), stride=(2, 2), padding=(1, 1), bias=False)        (bn): BatchNorm2d(128, eps=1e-05, momentum=0.1, affine=True, track_running_stats=True)        (act): SiLU(inplace=True)      )      (1): CSPLayer(        (conv1): BaseConv(          (conv): Conv2d(128, 64, kernel_size=(1, 1), stride=(1, 1), bias=False)          (bn): BatchNorm2d(64, eps=1e-05, momentum=0.1, affine=True, track_running_stats=True)          (act): SiLU(inplace=True)        )        (conv2): BaseConv(          (conv): Conv2d(128, 64, kernel_size=(1, 1), stride=(1, 1), bias=False)          (bn): BatchNorm2d(64, eps=1e-05, momentum=0.1, affine=True, track_running_stats=True)          (act): SiLU(inplace=True)        )        (conv3): BaseConv(          (conv): Conv2d(128, 128, kernel_size=(1, 1), stride=(1, 1), bias=False)          (bn): BatchNorm2d(128, eps=1e-05, momentum=0.1, affine=True, track_running_stats=True)          (act): SiLU(inplace=True)        )        (m): Sequential(          (0): Bottleneck(            (conv1): BaseConv(              (conv): Conv2d(64, 64, kernel_size=(1, 1), stride=(1, 1), bias=False)              (bn): BatchNorm2d(64, eps=1e-05, momentum=0.1, affine=True, track_running_stats=True)              (act): SiLU(inplace=True)            )            (conv2): BaseConv(              (conv): Conv2d(64, 64, kernel_size=(3, 3), stride=(1, 1), padding=(1, 1), bias=False)              (bn): BatchNorm2d(64, eps=1e-05, momentum=0.1, affine=True, track_running_stats=True)              (act): SiLU(inplace=True)            )          )          (1): Bottleneck(            (conv1): BaseConv(              (conv): Conv2d(64, 64, kernel_size=(1, 1), stride=(1, 1), bias=False)              (bn): BatchNorm2d(64, eps=1e-05, momentum=0.1, affine=True, track_running_stats=True)              (act): SiLU(inplace=True)            )            (conv2): BaseConv(              (conv): Conv2d(64, 64, kernel_size=(3, 3), stride=(1, 1), padding=(1, 1), bias=False)              (bn): BatchNorm2d(64, eps=1e-05, momentum=0.1, affine=True, track_runnin...ffine=True, track_running_stats=True)      (act): SiLU(inplace=True)    )    (conv2): BaseConv(      (conv): Conv2d(256, 64, kernel_size=(1, 1), stride=(1, 1), bias=False)      (bn): BatchNorm2d(64, eps=1e-05, momentum=0.1, affine=True, track_running_stats=True)      (act): SiLU(inplace=True)    )    (conv3): BaseConv(      (conv): Conv2d(128, 128, kernel_size=(1, 1), stride=(1, 1), bias=False)      (bn): BatchNorm2d(128, eps=1e-05, momentum=0.1, affine=True, track_running_stats=True)      (act): SiLU(inplace=True)    )    (m): Sequential(      (0): Bottleneck(        (conv1): BaseConv(          (conv): Conv2d(64, 64, kernel_size=(1, 1), stride=(1, 1), bias=False)          (bn): BatchNorm2d(64, eps=1e-05, momentum=0.1, affine=True, track_running_stats=True)          (act): SiLU(inplace=True)        )        (conv2): BaseConv(          (conv): Conv2d(64, 64, kernel_size=(3, 3), stride=(1, 1), padding=(1, 1), bias=False)          (bn): BatchNorm2d(64, eps=1e-05, momentum=0.1, affine=True, track_running_stats=True)          (act): SiLU(inplace=True)        )      )    )  )  (bu_conv2): BaseConv(    (conv): Conv2d(128, 128, kernel_size=(3, 3), stride=(2, 2), padding=(1, 1), bias=False)    (bn): BatchNorm2d(128, eps=1e-05, momentum=0.1, affine=True, track_running_stats=True)    (act): SiLU(inplace=True)  )  (C3_n3): CSPLayer(    (conv1): BaseConv(      (conv): Conv2d(256, 128, kernel_size=(1, 1), stride=(1, 1), bias=False)      (bn): BatchNorm2d(128, eps=1e-05, momentum=0.1, affine=True, track_running_stats=True)      (act): SiLU(inplace=True)    )    (conv2): BaseConv(      (conv): Conv2d(256, 128, kernel_size=(1, 1), stride=(1, 1), bias=False)      (bn): BatchNorm2d(128, eps=1e-05, momentum=0.1, affine=True, track_running_stats=True)      (act): SiLU(inplace=True)    )    (conv3): BaseConv(      (conv): Conv2d(256, 256, kernel_size=(1, 1), stride=(1, 1), bias=False)      (bn): BatchNorm2d(256, eps=1e-05, momentum=0.1, affine=True, track_running_stats=True)      (act): SiLU(inplace=True)    )    (m): Sequential(      (0): Bottleneck(        (conv1): BaseConv(          (conv): Conv2d(128, 128, kernel_size=(1, 1), stride=(1, 1), bias=False)          (bn): BatchNorm2d(128, eps=1e-05, momentum=0.1, affine=True, track_running_stats=True)          (act): SiLU(inplace=True)        )        (conv2): BaseConv(          (conv): Conv2d(128, 128, kernel_size=(3, 3), stride=(1, 1), padding=(1, 1), bias=False)          (bn): BatchNorm2d(128, eps=1e-05, momentum=0.1, affine=True, track_running_stats=True)          (act): SiLU(inplace=True)        )      )    )  )  (bu_conv1): BaseConv(    (conv): Conv2d(256, 256, kernel_size=(3, 3), stride=(2, 2), padding=(1, 1), bias=False)    (bn): BatchNorm2d(256, eps=1e-05, momentum=0.1, affine=True, track_running_stats=True)    (act): SiLU(inplace=True)  )  (C3_n4): CSPLayer(    (conv1): BaseConv(      (conv): Conv2d(512, 256, kernel_size=(1, 1), stride=(1, 1), bias=False)      (bn): BatchNorm2d(256, eps=1e-05, momentum=0.1, affine=True, track_running_stats=True)      (act): SiLU(inplace=True)    )    (conv2): BaseConv(      (conv): Conv2d(512, 256, kernel_size=(1, 1), stride=(1, 1), bias=False)      (bn): BatchNorm2d(256, eps=1e-05, momentum=0.1, affine=True, track_running_stats=True)      (act): SiLU(inplace=True)    )    (conv3): BaseConv(      (conv): Conv2d(512, 512, kernel_size=(1, 1), stride=(1, 1), bias=False)      (bn): BatchNorm2d(512, eps=1e-05, momentum=0.1, affine=True, track_running_stats=True)      (act): SiLU(inplace=True)    )    (m): Sequential(      (0): Bottleneck(        (conv1): BaseConv(          (conv): Conv2d(256, 256, kernel_size=(1, 1), stride=(1, 1), bias=False)          (bn): BatchNorm2d(256, eps=1e-05, momentum=0.1, affine=True, track_running_stats=True)          (act): SiLU(inplace=True)        )        (conv2): BaseConv(          (conv): Conv2d(256, 256, kernel_size=(3, 3), stride=(1, 1), padding=(1, 1), bias=False)          (bn): BatchNorm2d(256, eps=1e-05, momentum=0.1, affine=True, track_running_stats=True)          (act): SiLU(inplace=True)        )      )    )  ))", "head": "YOLOXHead(  (cls_convs): ModuleList(    (0-2): 3 x Sequential(      (0): BaseConv(        (conv): Conv2d(128, 128, kernel_size=(3, 3), stride=(1, 1), padding=(1, 1), bias=False)        (bn): BatchNorm2d(128, eps=1e-05, momentum=0.1, affine=True, track_running_stats=True)        (act): SiLU(inplace=True)      )      (1): BaseConv(        (conv): Conv2d(128, 128, kernel_size=(3, 3), stride=(1, 1), padding=(1, 1), bias=False)        (bn): BatchNorm2d(128, eps=1e-05, momentum=0.1, affine=True, track_running_stats=True)        (act): SiLU(inplace=True)      )    )  )  (reg_convs): ModuleList(    (0-2): 3 x Sequential(      (0): BaseConv(        (conv): Conv2d(128, 128, kernel_size=(3, 3), stride=(1, 1), padding=(1, 1), bias=False)        (bn): BatchNorm2d(128, eps=1e-05, momentum=0.1, affine=True, track_running_stats=True)        (act): SiLU(inplace=True)      )      (1): BaseConv(        (conv): Conv2d(128, 128, kernel_size=(3, 3), stride=(1, 1), padding=(1, 1), bias=False)        (bn): BatchNorm2d(128, eps=1e-05, momentum=0.1, affine=True, track_running_stats=True)        (act): SiLU(inplace=True)      )    )  )  (cls_preds): ModuleList(    (0-2): 3 x Conv2d(128, 80, kernel_size=(1, 1), stride=(1, 1))  )  (reg_preds): ModuleList(    (0-2): 3 x Conv2d(128, 4, kernel_size=(1, 1), stride=(1, 1))  )  (obj_preds): ModuleList(    (0-2): 3 x Conv2d(128, 1, kernel_size=(1, 1), stride=(1, 1))  )  (stems): ModuleList(    (0): BaseConv(      (conv): Conv2d(128, 128, kernel_size=(1, 1), stride=(1, 1), bias=False)      (bn): BatchNorm2d(128, eps=1e-05, momentum=0.1, affine=True, track_running_stats=True)      (act): SiLU(inplace=True)    )    (1): BaseConv(      (conv): Conv2d(256, 128, kernel_size=(1, 1), stride=(1, 1), bias=False)      (bn): BatchNorm2d(128, eps=1e-05, momentum=0.1, affine=True, track_running_stats=True)      (act): SiLU(inplace=True)    )    (2): BaseConv(      (conv): Conv2d(512, 128, kernel_size=(1, 1), stride=(1, 1), bias=False)      (bn): BatchNorm2d(128, eps=1e-05, momentum=0.1, affine=True, track_running_stats=True)      (act): SiLU(inplace=True)    )  )  (l1_loss): L1Loss()  (bcewithlog_loss): BCEWithLogitsLoss()  (iou_loss): IOUloss())"}, "Value After Statement Execution": "YOLOX(  (backbone): YOLOPAFPN(    (backbone): CSPDarknet(      (stem): Focus(        (conv): BaseConv(          (conv): Conv2d(12, 32, kernel_size", "Variable States During Runtime": {"self": [[1, " keys               values                      seed               None                        output_dir         './YOLOX_outputs'           print_interval     10                          eval_interval      10                          dataset            None                        num_classes        80                         
…
                                                                                           (backbone): YOLOPAFPN(                                                                                                        (backbone): CSPDarknet(                                                                                                       (stem): Focus(                                                                                                                (conv): BaseConv(                                                                                                             (conv): Conv2d(12, 32, kernel_size=(3, 3), stride=(1, 1), padding=(1, 1), bias=False)                                       (bn): BatchNorm2d(32, eps=1e-05, momentum=0.1, affine=True, track_running_stats=True)                                       (act): SiLU(inplace=True)                                                                                                 )                                                                                                                         )                                                                                                                           (dark2): Sequential(                                                                                                          (0): BaseConv(                                                                                                                (conv): Conv2d(32, 64, kernel_size=(3, 3), stride=(2, 2), padding=(1, 1), bias=False)                                       (bn): BatchNorm2d(64, eps=1e-05, momentum=0.1, affine=True, track_running_stats=True)                                       (act): SiLU(inplace=True)                                                                                                 )                                                                                                                           (1): CSPLayer(                                                                                                                (conv1): BaseConv(                                                                                                            (conv): Conv2d(64, 32, kernel_size=(1, 1), stride=(1, 1), bias=False)                                                       (bn): BatchNorm2d(32, eps=1e-05, momentum=0.1, affine=True, track_running_stats=True)                                       (act): SiLU(inplace=True)                                                                                                 )                                                                                                                           (conv2): BaseConv(                                                                                                            (conv): Conv2d(64, 32, kernel_size=(1, 1), stride=(1, 1), bias=False)                                                       (bn): BatchNorm2d(32, eps=1e-05, momentum=0.1, affine=True, track_running_stats=True)                                       (act): SiLU(inplace=True)                                                                                                 )                                                                                                                           (conv3): BaseConv(                                                                                                            (conv): Conv2d(64, 64, kernel_size=(1, 1), stride=(1, 1), bias=False)                                                       (bn): BatchNorm2d(64, eps=1e-05, momentum=0.1, affine=True, track_running_stats=True)                                       (act): SiLU(inplace=True)                                                                                                 )                                                                                                                           (m): Sequential(                                                                                                              (0): Bottleneck(                                                                                                              (conv1): BaseConv(                                                                                                            (conv): Conv2d(32, 32, kernel_size=(1, 1), stride=(1, 1), bias=False)                                                       (bn): BatchNorm2d(32, eps=1e-05, momentum=0.1, affine=True, track_running_stats=True)                                       (act): SiLU(inplace=True)                                                                                                 )                                                                                                                           (conv2): BaseConv(                                                                                                            (conv): Conv2d(32, 32, kernel_size=(3, 3), stride=(1, 1), padding=(1, 1), bias=False)                                       (bn): BatchNorm2d(32, eps=1e-05, momentum=0.1, affine=True, track_running_stats=True)                                       (act): SiLU(inplace=True)                                                                                                 )                                                                                                                         )                                                 
…
                                                                                                 )                                                                                                                         )                                                                                                                           (dark3): Sequential(                                                                                                          (0): BaseConv(                                                                                                                (conv): Conv2d(64, 128, kernel_size=(3, 3), stride=(2, 2), padding=(1, 1), bias=False)                                      (bn): BatchNorm2d(128, eps=1e-05, momentum=0.1, affine=True, track_running_stats=True)                                      (act): SiLU(inplace=True)                                                                                                 )                                                                                                                           (1): CSPLayer(                                                                                                                (conv1): BaseConv(                                                                                                            (conv): Conv2d(128, 64, kernel_size=(1, 1), stride=(1, 1), bias=False)                                                      (bn): BatchNorm2d(64, eps=1e-05, momentum=0.1, affine=True, track_running_stats=True)                                       (act): SiLU(inplace=True)                                                                                                 )                                                                                                                           (conv2): BaseConv(                                                                                                            (conv): Conv2d(128, 64, kernel_size=(1, 1), stride=(1, 1), bias=False)                                                      (bn): BatchNorm2d(64, eps=1e-05, momentum=0.1, affine=True, track_running_stats=True)                                       (act): SiLU(inplace=True)                                                                                                 )                                                                                                                           (conv3): BaseConv(                                                                                                            (conv): Conv2d(128, 128, kernel_size=(1, 1), stride=(1, 1), bias=False)                                                     (bn): BatchNorm2d(128, eps=1e-05, momentum=0.1, affine=True, track_running_stats=True)                                      (act): SiLU(inplace=True)                                                                                                 )                                                                                                                           (m): Sequential(                                                                                                              (0): Bottleneck(                                                                                                              (conv1): BaseConv(                                                                                                            (conv): Conv2d(64, 64, kernel_size=(1, 1), stride=(1, 1), bias=False)                                                       (bn): BatchNorm2d(64, eps=1e-05, momentum=0.1, affine=True, track_running_stats=True)                                       (act): SiLU(inplace=True)                                                                                                 )                                                                                                                           (conv2): BaseConv(                                                                                                            (conv): Conv2d(64, 64, kernel_size=(3, 3), stride=(1, 1), padding=(1, 1), bias=False)                                       (bn): BatchNorm2d(64, eps=1e-05, momentum=0.1, affine=True, track_running_stats=True)                                       (act): SiLU(inplace=True)                                                                                                 )                                                                                                                         )                                                                                                                           (1): Bottleneck(                                                                                                              (conv1): BaseConv(                                                                                                            (conv): Conv2d(64, 64, kernel_size=(1, 1), stride=(1, 1), bias=False)                                                       (bn): BatchNorm2d(64, eps=1e-05, momentum=0.1, affine=True, track_running_stats=True)                                       (act): SiLU(inplace=True)                                                                                                 )                                                                                                                           (conv2): BaseConv(                                                                                                            (conv): Conv2d(64, 64, kernel_size=(3, 3), stride=(1, 1), padding=(1, 1), bias=False)                                       (bn): BatchNorm2d(64, eps=1e-05, momentum=0.1, affine=True, track_running_stats=True)                                       (act): SiLU(inplace=True)                                                                                                 )                                                                                                                         )                                                                                                                           (2): Bottleneck(                                                                                                              (conv1): BaseConv(                                                                                                            (conv): Conv2d(64, 64, kernel_size=(1, 1), stride=(1, 1), bias=False)                                                       (bn): BatchNorm2d(64, eps=1e-05, momentum=0.1, affine=True, track_running_stats=True)                                       (act): SiLU(inplace=True)                                                                                                 )                                                                                                                           (conv2): BaseConv(                                                                                                            (conv): Conv2d(64, 64, kernel_size=(3, 3), stride=(1, 1), padding=(1, 1), bias=False)                                       (bn): BatchNorm2d(64, eps=1e-05, momentum=0.1, affine=True, track_running_stats=True)                                       (act): SiLU(inplace=True)                                                                                                 )                                                                                                                         )                                                 
…
                                                                                                 )                                                                                                                         )                                                                                                                           (dark4): Sequential(                                                                                                          (0): BaseConv(                                                                                                                (conv): Conv2d(128, 256, kernel_size=(3, 3), stride=(2, 2), padding=(1, 1), bias=False)                                     (bn): BatchNorm2d(256, eps=1e-05, momentum=0.1, affine=True, track_running_stats=True)                                      (act): SiLU(inplace=True)                                                                                                 )                                                                                                                           (1): CSPLayer(                                                                                                                (conv1): BaseConv(                                                                                                            (conv): Conv2d(256, 128, kernel_size=(1, 1), stride=(1, 1), bias=False)                                                     (bn): BatchNorm2d(128, eps=1e-05, momentum=0.1, affine=True, track_running_stats=True)                                      (act): SiLU(inplace=True)                                                                                                 )                                                                                                                           (conv2): BaseConv(                                                                                                            (conv): Conv2d(256, 128, kernel_size=(1, 1), stride=(1, 1), bias=False)                                                     (bn): BatchNorm2d(128, eps=1e-05, momentum=0.1, affine=True, track_running_stats=True)                                      (act): SiLU(inplace=True)                                                                                                 )                                                                                                                           (conv3): BaseConv(                                                                                                            (conv): Conv2d(256, 256, kernel_size=(1, 1), stride=(1, 1), bias=False)                                                     (bn): BatchNorm2d(256, eps=1e-05, momentum=0.1, affine=True, track_running_stats=True)                                      (act): SiLU(inplace=True)                                                                                                 )                                                                                                                           (m): Sequential(                                                                                                              (0): Bottleneck(                                                                                                              (conv1): BaseConv(                                                                                                            (conv): Conv2d(128, 128, kernel_size=(1, 1), stride=(1, 1), bias=False)                                                     (bn): BatchNorm2d(128, eps=1e-05, momentum=0.1, affine=True, track_running_stats=True)                                      (act): SiLU(inplace=True)                                                                                                 )                                                                                                                           (conv2): BaseConv(                                                                                                            (conv): Conv2d(128, 128, kernel_size=(3, 3), stride=(1, 1), padding=(1, 1), bias=False)                                     (bn): BatchNorm2d(128, eps=1e-05, momentum=0.1, affine=True, track_running_stats=True)                                      (act): SiLU(inplace=True)                                                                                                 )                                                                                                                         )                                                                                                                           (1): Bottleneck(                                                                                                              (conv1): BaseConv(                                                                                                            (conv): Conv2d(128, 128, kernel_size=(1, 1), stride=(1, 1), bias=False)                                                     (bn): BatchNorm2d(128, eps=1e-05, momentum=0.1, affine=True, track_running_stats=True)                                      (act): SiLU(inplace=True)                                                                                                 )                                                                                                                           (conv2): BaseConv(                                                                                                            (conv): Conv2d(128, 128, kernel_size=(3, 3), stride=(1, 1), padding=(1, 1), bias=False)                                     (bn): BatchNorm2d(128, eps=1e-05, momentum=0.1, affine=True, track_running_stats=True)                                      (act): SiLU(inplace=True)                                                                                                 )                                                                                                                         )                                                                                                                           (2): Bottleneck(                                                                                                              (conv1): BaseConv(                                                                                                            (conv): Conv2d(128, 128, kernel_size=(1, 1), stride=(1, 1), bias=False)                                                     (bn): BatchNorm2d(128, eps=1e-05, momentum=0.1, affine=True, track_running_stats=True)                                      (act): SiLU(inplace=True)                                                                                                 )                                                                                                                           (conv2): BaseConv(                                                                                                            (conv): Conv2d(128, 128, kernel_size=(3, 3), stride=(1, 1), padding=(1, 1), bias=False)                                     (bn): BatchNorm2d(128, eps=1e-05, momentum=0.1, affine=True, track_running_stats=True)                                      (act): SiLU(inplace=True)                                                                                                 )                                                                                                                         )                                                 
…
e=5, stride=1, padding=2, dilation=1, ceil_mode=False)                                             (1): MaxPool2d(kernel_size=9, stride=1, padding=4, dilation=1, ceil_mode=False)                                             (2): MaxPool2d(kernel_size=13, stride=1, padding=6, dilation=1, ceil_mode=False)                                          )                                                                                                                           (conv2): BaseConv(                                                                                                            (conv): Conv2d(1024, 512, kernel_size=(1, 1), stride=(1, 1), bias=False)                                                    (bn): BatchNorm2d(512, eps=1e-05, momentum=0.1, affine=True, track_running_stats=True)                                      (act): SiLU(inplace=True)                                                                                                 )                                                                                                                         )                                                                                                                           (2): CSPLayer(                                                                                                                (conv1): BaseConv(                                                                                                            (conv): Conv2d(512, 256, kernel_size=(1, 1), stride=(1, 1), bias=False)                                                     (bn): BatchNorm2d(256, eps=1e-05, momentum=0.1, affine=True, track_running_stats=True)                                      (act): SiLU(inplace=True)                                                                                                 )                                                                                                                           (conv2): BaseConv(                                                                                                            (conv): Conv2d(512, 256, kernel_size=(1, 1), stride=(1, 1), bias=False)                                                     (bn): BatchNorm2d(256, eps=1e-05, momentum=0.1, affine=True, track_running_stats=True)                                      (act): SiLU(inplace=True)                                                                                                 )                                                                                                                           (conv3): BaseConv(                                                                                                            (conv): Conv2d(512, 512, kernel_size=(1, 1), stride=(1, 1), bias=False)                                                     (bn): BatchNorm2d(512, eps=1e-05, momentum=0.1, affine=True, track_running_stats=True)                                      (act): SiLU(inplace=True)                                                                                                 )                                                                                                                           (m): Sequential(                                                                                                              (0): Bottleneck(                                                                                                              (conv1): BaseConv(                                                                                                            (conv): Conv2d(256, 256, kernel_size=(1, 1), stride=(1, 1), bias=False)                                                     (bn): BatchNorm2d(256, eps=1e-05, momentum=0.1, affine=True, track_running_stats=True)                                      (act): SiLU(inplace=True)                                                                                                 )                                                                                                                           (conv2): BaseConv(                                                                                                            (conv): Conv2d(256, 256, kernel_size=(3, 3), stride=(1, 1), padding=(1, 1), bias=False)                                     (bn): BatchNorm2d(256, eps=1e-05, momentum=0.1, affine=True, track_running_stats=True)                                      (act): SiLU(inplace=True)                                                                                                 )                                                                                                                         )                                                 
…
                                                                                                   )                                                                                                                         )                                                                                                                           (upsample): Upsample(scale_factor=2.0, mode='nearest')                                                                      (lateral_conv0): BaseConv(                                                                                                    (conv): Conv2d(512, 256, kernel_size=(1, 1), stride=(1, 1), bias=False)                                                     (bn): BatchNorm2d(256, eps=1e-05, momentum=0.1, affine=True, track_running_stats=True)                                      (act): SiLU(inplace=True)                                                                                                 )                                                                                                                           (C3_p4): CSPLayer(                                                                                                            (conv1): BaseConv(                                                                                                            (conv): Conv2d(512, 128, kernel_size=(1, 1), stride=(1, 1), bias=False)                                                     (bn): BatchNorm2d(128, eps=1e-05, momentum=0.1, affine=True, track_running_stats=True)                                      (act): SiLU(inplace=True)                                                                                                 )                                                                                                                           (conv2): BaseConv(                                                                                                            (conv): Conv2d(512, 128, kernel_size=(1, 1), stride=(1, 1), bias=False)                                                     (bn): BatchNorm2d(128, eps=1e-05, momentum=0.1, affine=True, track_running_stats=True)                                      (act): SiLU(inplace=True)                                                                                                 )                                                                                                                           (conv3): BaseConv(                                                                                                            (conv): Conv2d(256, 256, kernel_size=(1, 1), stride=(1, 1), bias=False)                                                     (bn): BatchNorm2d(256, eps=1e-05, momentum=0.1, affine=True, track_running_stats=True)                                      (act): SiLU(inplace=True)                                                                                                 )                                                                                                                           (m): Sequential(                                                                                                              (0): Bottleneck(                                                                                                              (conv1): BaseConv(                                                                                                            (conv): Conv2d(128, 128, kernel_size=(1, 1), stride=(1, 1), bias=False)                                                     (bn): BatchNorm2d(128, eps=1e-05, momentum=0.1, affine=True, track_running_stats=True)                                      (act): SiLU(inplace=True)                                                                                                 )                                                                                                                           (conv2): BaseConv(                                                                                                            (conv): Conv2d(128, 128, kernel_size=(3, 3), stride=(1, 1), padding=(1, 1), bias=False)                                     (bn): BatchNorm2d(128, eps=1e-05, momentum=0.1, affine=True, track_running_stats=True)                                      (act): SiLU(inplace=True)                                                                                                 )                                                                                                                         )                                                                                                                         )                                                                                                                         )                                                                                                                           (reduce_conv1): BaseConv(                                                                                                     (conv): Conv2d(256, 128, kernel_size=(1, 1), stride=(1, 1), bias=False)                                                     (bn): BatchNorm2d(128, eps=1e-05, momentum=0.1, affine=True, track_running_stats=True)                                      (act): SiLU(inplace=True)                                                                                                 )                                                                                                                           (C3_p3): CSPLayer(                                                                                                            (conv1): BaseConv(                                                                                                            (conv): Conv2d(256, 64, kernel_size=(1, 1), stride=(1, 1), bias=False)                                                      (bn): BatchNorm2d(64, eps=1e-05, momentum=0.1, affine=True, track_running_stats=True)                                       (act): SiLU(inplace=True)                                                                                                 )                                                                                                                           (conv2): BaseConv(                                                                                                            (conv): Conv2d(256, 64, kernel_size=(1, 1), stride=(1, 1), bias=False)                                                      (bn): BatchNorm2d(64, eps=1e-05, momentum=0.1, affine=True, track_running_stats=True)                                       (act): SiLU(inplace=True)                                                                                                 )                                                                                                                           (conv3): BaseConv(                                                                                                            (conv): Conv2d(128, 128, kernel_size=(1, 1), stride=(1, 1), bias=False)                                                     (bn): BatchNorm2d(128, eps=1e-05, momentum=0.1, affine=True, track_running_stats=True)                                      (act): SiLU(inplace=True)                                                                                                 )                                                                                                                           (m): Sequential(                                                                                                              (0): Bottleneck(                                                                                                              (conv1): BaseConv(                                                                                                            (conv): Conv2d(64, 64, kernel_size=(1, 1), stride=(1, 1), bias=False)                                                       (bn): BatchNorm2d(64, eps=1e-05, momentum=0.1, affine=True, track_running_stats=True)                                       (act): SiLU(inplace=True)                                                                                                 )                                                                                                                           (conv2): BaseConv(                                                                                                            (conv): Conv2d(64, 64, kernel_size=(3, 3), stride=(1, 1), padding=(1, 1), bias=False)                                       (bn): BatchNorm2d(64, eps=1e-05, momentum=0.1, affine=True, track_running_stats=True)                                       (act): SiLU(inplace=True)                                                                                                 )                                                                                                                         )                                                                                                                         )                                                                                                                         )                                                                                                                           (bu_conv2): BaseConv(                                                                                                         (conv): Conv2d(128, 128, kernel_size=(3, 3), stride=(2, 2), padding=(1, 1), bias=False)                                     (bn): BatchNorm2d(128, eps=1e-05, momentum=0.1, affine=True, track_running_stats=True)                                      (act): SiLU(inplace=True)                                                                                                 )                                                                                                                           (C3_n3): CSPLayer(                                                                                                            (conv1): BaseConv(                                                                                                            (conv): Conv2d(256, 128, kernel_size=(1, 1), stride=(1, 1), bias=False)                                                     (bn): BatchNorm2d(128, eps=1e-05, momentum=0.1, affine=True, track_running_stats=True)                                      (act): SiLU(inplace=True)                                                                                                 )                                                                                                                           (conv2): BaseConv(                                                                                                            (conv): Conv2d(256, 128, kernel_size=(1, 1), stride=(1, 1), bias=False)                                                     (bn): BatchNorm2d(128, eps=1e-05, momentum=0.1, affine=True, track_running_stats=True)                                      (act): SiLU(inplace=True)                                                                                                 )                                                                                                                           (conv3): BaseConv(                                                                                                            (conv): Conv2d(256, 256, kernel_size=(1, 1), stride=(1, 1), bias=False)                                                     (bn): BatchNorm2d(256, eps=1e-05, momentum=0.1, affine=True, track_running_stats=True)                                      (act): SiLU(inplace=True)                                                                                                 )                                                                                                                           (m): Sequential(                                                                                                              (0): Bottleneck(                                                                                                              (conv1): BaseConv(                                                                                                            (conv): Conv2d(128, 128, kernel_size=(1, 1), stride=(1, 1), bias=False)                                                     (bn): BatchNorm2d(128, eps=1e-05, momentum=0.1, affine=True, track_running_stats=True)                                      (act): SiLU(inplace=True)                                                                                                 )                                                                                                                           (conv2): BaseConv(                                                                                                            (conv): Conv2d(128, 128, kernel_size=(3, 3), stride=(1, 1), padding=(1, 1), bias=False)                                     (bn): BatchNorm2d(128, eps=1e-05, momentum=0.1, affine=True, track_running_stats=True)                                      (act): SiLU(inplace=True)                                                                                                 )                                                                                                                         )                                                                                                                         )                                                                                                                         )                                                                                                                           (bu_conv1): BaseConv(                                                                                                         (conv): Conv2d(256, 256, kernel_size=(3, 3), stride=(2, 2), padding=(1, 1), bias=False)                                     (bn): BatchNorm2d(256, eps=1e-05, momentum=0.1, affine=True, track_running_stats=True)                                      (act): SiLU(inplace=True)                                                                                                 )                                                                                                                           (C3_n4): CSPLayer(                                                                                                            (conv1): BaseConv(                                                                                                            (conv): Conv2d(512, 256, kernel_size=(1, 1), stride=(1, 1), bias=False)                                                     (bn): BatchNorm2d(256, eps=1e-05, momentum=0.1, affine=True, track_running_stats=True)                                      (act): SiLU(inplace=True)                                                                                                 )                                                                                                                           (conv2): BaseConv(                                                                                                            (conv): Conv2d(512, 256, kernel_size=(1, 1), stride=(1, 1), bias=False)                                                     (bn): BatchNorm2d(256, eps=1e-05, momentum=0.1, affine=True, track_running_stats=True)                                      (act): SiLU(inplace=True)                                                                                                 )                                                                                                                           (conv3): BaseConv(                                                                                                            (conv): Conv2d(512, 512, kernel_size=(1, 1), stride=(1, 1), bias=False)                                                     (bn): BatchNorm2d(512, eps=1e-05, momentum=0.1, affine=True, track_running_stats=True)                                      (act): SiLU(inplace=True)                                                                                                 )                                                                                                                           (m): Sequential(                                                                                                              (0): Bottleneck(                                                                                                              (conv1): BaseConv(                                                                                                            (conv): Conv2d(256, 256, kernel_size=(1, 1), stride=(1, 1), bias=False)                                                     (bn): BatchNorm2d(256, eps=1e-05, momentum=0.1, affine=True, track_running_stats=True)                                      (act): SiLU(inplace=True)                                                                                                 )                                                                                                                           (conv2): BaseConv(                                                                                                            (conv): Conv2d(256, 256, kernel_size=(3, 3), stride=(1, 1), padding=(1, 1), bias=False)                                     (bn): BatchNorm2d(256, eps=1e-05, momentum=0.1, affine=True, track_running_stats=True)                                      (act): SiLU(inplace=True)                                                                                                 )                                                                                                                         )                                                 
…
                                                                                                 (0-2): 3 x Conv2d(128, 1, kernel_size=(1, 1), stride=(1, 1))                                                              )                                                                                                                           (stems): ModuleList(                                                                                                          (0): BaseConv(                                                                                                                (conv): Conv2d(128, 128, kernel_size=(1, 1), stride=(1, 1), bias=False)                                                     (bn): BatchNorm2d(128, eps=1e-05, momentum=0.1, affine=True, track_running_stats=True)                                      (act): SiLU(inplace=True)                                                                                                 )                                                                                                                           (1): BaseConv(                                                                                                                (conv): Conv2d(256, 128, kernel_size=(1, 1), stride=(1, 1), bias=False)                                                     (bn): BatchNorm2d(128, eps=1e-05, momentum=0.1, affine=True, track_running_stats=True)                                      (act): SiLU(inplace=True)                                                                                                 )                                                                                                                           (2): BaseConv(                                                                                                                (conv): Conv2d(512, 128, kernel_size=(1, 1), stride=(1, 1), bias=False)                                                     (bn): BatchNorm2d(128, eps=1e-05, momentum=0.1, affine=True, track_running_stats=True)                                      (act): SiLU(inplace=True)                                                                                                 )                                                                                                                         )                                                 
…
                                                                                           (backbone): YOLOPAFPN(                                                                                                        (backbone): CSPDarknet(                                                                                                       (stem): Focus(                                                                                                                (conv): BaseConv(                                                                                                             (conv): Conv2d(12, 32, kernel_size=(3, 3), stride=(1, 1), padding=(1, 1), bias=False)                                       (bn): BatchNorm2d(32, eps=0.001, momentum=0.03, affine=True, track_running_stats=True)                                      (act): SiLU(inplace=True)                                                                                                 )                                                                                                                         )                                                                                                                           (dark2): Sequential(                                                                                                          (0): BaseConv(                                                                                                                (conv): Conv2d(32, 64, kernel_size=(3, 3), stride=(2, 2), padding=(1, 1), bias=False)                                       (bn): BatchNorm2d(64, eps=0.001, momentum=0.03, affine=True, track_running_stats=True)                                      (act): SiLU(inplace=True)                                                                                                 )                                                                                                                           (1): CSPLayer(                                                                                                                (conv1): BaseConv(                                                                                                            (conv): Conv2d(64, 32, kernel_size=(1, 1), stride=(1, 1), bias=False)                                                       (bn): BatchNorm2d(32, eps=0.001, momentum=0.03, affine=True, track_running_stats=True)                                      (act): SiLU(inplace=True)                                                                                                 )                                                                                                                           (conv2): BaseConv(                                                                                                            (conv): Conv2d(64, 32, kernel_size=(1, 1), stride=(1, 1), bias=False)                                                       (bn): BatchNorm2d(32, eps=0.001, momentum=0.03, affine=True, track_running_stats=True)                                      (act): SiLU(inplace=True)                                                                                                 )                                                                                                                           (conv3): BaseConv(                                                                                                            (conv): Conv2d(64, 64, kernel_size=(1, 1), stride=(1, 1), bias=False)                                                       (bn): BatchNorm2d(64, eps=0.001, momentum=0.03, affine=True, track_running_stats=True)                                      (act): SiLU(inplace=True)                                                                                                 )                                                                                                                           (m): Sequential(                                                                                                              (0): Bottleneck(                                                                                                              (conv1): BaseConv(                                                                                                            (conv): Conv2d(32, 32, kernel_size=(1, 1), stride=(1, 1), bias=False)                                                       (bn): BatchNorm2d(32, eps=0.001, momentum=0.03, affine=True, track_running_stats=True)                                      (act): SiLU(inplace=True)                                                                                                 )                                                                                                                           (conv2): BaseConv(                                                                                                            (conv): Conv2d(32, 32, kernel_size=(3, 3), stride=(1, 1), padding=(1, 1), bias=False)                                       (bn): BatchNorm2d(32, eps=0.001, momentum=0.03, affine=True, track_running_stats=True)                                      (act): SiLU(inplace=True)                                                                                                 )                                                                                                                         )                                                 
…
                                                                                                 )                                                                                                                         )                                                                                                                           (dark3): Sequential(                                                                                                          (0): BaseConv(                                                                                                                (conv): Conv2d(64, 128, kernel_size=(3, 3), stride=(2, 2), padding=(1, 1), bias=False)                                      (bn): BatchNorm2d(128, eps=0.001, momentum=0.03, affine=True, track_running_stats=True)                                     (act): SiLU(inplace=True)                                                                                                 )                                                                                                                           (1): CSPLayer(                                                                                                                (conv1): BaseConv(                                                                                                            (conv): Conv2d(128, 64, kernel_size=(1, 1), stride=(1, 1), bias=False)                                                      (bn): BatchNorm2d(64, eps=0.001, momentum=0.03, affine=True, track_running_stats=True)                                      (act): SiLU(inplace=True)                                                                                                 )                                                                                                                           (conv2): BaseConv(                                                                                                            (conv): Conv2d(128, 64, kernel_size=(1, 1), stride=(1, 1), bias=False)                                                      (bn): BatchNorm2d(64, eps=0.001, momentum=0.03, affine=True, track_running_stats=True)                                      (act): SiLU(inplace=True)                                                                                                 )                                                                                                                           (conv3): BaseConv(                                                                                                            (conv): Conv2d(128, 128, kernel_size=(1, 1), stride=(1, 1), bias=False)                                                     (bn): BatchNorm2d(128, eps=0.001, momentum=0.03, affine=True, track_running_stats=True)                                     (act): SiLU(inplace=True)                                                                                                 )                                                                                                                           (m): Sequential(                                                                                                              (0): Bottleneck(                                                                                                              (conv1): BaseConv(                                                                                                            (conv): Conv2d(64, 64, kernel_size=(1, 1), stride=(1, 1), bias=False)                                                       (bn): BatchNorm2d(64, eps=0.001, momentum=0.03, affine=True, track_running_stats=True)                                      (act): SiLU(inplace=True)                                                                                                 )                                                                                                                           (conv2): BaseConv(                                                                                                            (conv): Conv2d(64, 64, kernel_size=(3, 3), stride=(1, 1), padding=(1, 1), bias=False)                                       (bn): BatchNorm2d(64, eps=0.001, momentum=0.03, affine=True, track_running_stats=True)                                      (act): SiLU(inplace=True)                                                                                                 )                                                                                                                         )                                                                                                                           (1): Bottleneck(                                                                                                              (conv1): BaseConv(                                                                                                            (conv): Conv2d(64, 64, kernel_size=(1, 1), stride=(1, 1), bias=False)                                                       (bn): BatchNorm2d(64, eps=0.001, momentum=0.03, affine=True, track_running_stats=True)                                      (act): SiLU(inplace=True)                                                                                                 )                                                                                                                           (conv2): BaseConv(                                                                                                            (conv): Conv2d(64, 64, kernel_size=(3, 3), stride=(1, 1), padding=(1, 1), bias=False)                                       (bn): BatchNorm2d(64, eps=0.001, momentum=0.03, affine=True, track_running_stats=True)                                      (act): SiLU(inplace=True)                                                                                                 )                                                                                                                         )                                                                                                                           (2): Bottleneck(                                                                                                              (conv1): BaseConv(                                                                                                            (conv): Conv2d(64, 64, kernel_size=(1, 1), stride=(1, 1), bias=False)                                                       (bn): BatchNorm2d(64, eps=0.001, momentum=0.03, affine=True, track_running_stats=True)                                      (act): SiLU(inplace=True)                                                                                                 )                                                                                                                           (conv2): BaseConv(                                                                                                            (conv): Conv2d(64, 64, kernel_size=(3, 3), stride=(1, 1), padding=(1, 1), bias=False)                                       (bn): BatchNorm2d(64, eps=0.001, momentum=0.03, affine=True, track_running_stats=True)                                      (act): SiLU(inplace=True)                                                                                                 )                                                                                                                         )                                                 
…
                                                                                                 )                                                                                                                         )                                                                                                                           (dark4): Sequential(                                                                                                          (0): BaseConv(                                                                                                                (conv): Conv2d(128, 256, kernel_size=(3, 3), stride=(2, 2), padding=(1, 1), bias=False)                                     (bn): BatchNorm2d(256, eps=0.001, momentum=0.03, affine=True, track_running_stats=True)                                     (act): SiLU(inplace=True)                                                                                                 )                                                                                                                           (1): CSPLayer(                                                                                                                (conv1): BaseConv(                                                                                                            (conv): Conv2d(256, 128, kernel_size=(1, 1), stride=(1, 1), bias=False)                                                     (bn): BatchNorm2d(128, eps=0.001, momentum=0.03, affine=True, track_running_stats=True)                                     (act): SiLU(inplace=True)                                                                                                 )                                                                                                                           (conv2): BaseConv(                                                                                                            (conv): Conv2d(256, 128, kernel_size=(1, 1), stride=(1, 1), bias=False)                                                     (bn): BatchNorm2d(128, eps=0.001, momentum=0.03, affine=True, track_running_stats=True)                                     (act): SiLU(inplace=True)                                                                                                 )                                                                                                                           (conv3): BaseConv(                                                                                                            (conv): Conv2d(256, 256, kernel_size=(1, 1), stride=(1, 1), bias=False)                                                     (bn): BatchNorm2d(256, eps=0.001, momentum=0.03, affine=True, track_running_stats=True)                                     (act): SiLU(inplace=True)                                                                                                 )                                                                                                                           (m): Sequential(                                                                                                              (0): Bottleneck(                                                                                                              (conv1): BaseConv(                                                                                                            (conv): Conv2d(128, 128, kernel_size=(1, 1), stride=(1, 1), bias=False)                                                     (bn): BatchNorm2d(128, eps=0.001, momentum=0.03, affine=True, track_running_stats=True)                                     (act): SiLU(inplace=True)                                                                                                 )                                                                                                                           (conv2): BaseConv(                                                                                                            (conv): Conv2d(128, 128, kernel_size=(3, 3), stride=(1, 1), padding=(1, 1), bias=False)                                     (bn): BatchNorm2d(128, eps=0.001, momentum=0.03, affine=True, track_running_stats=True)                                     (act): SiLU(inplace=True)                                                                                                 )                                                                                                                         )                                                                                                                           (1): Bottleneck(                                                                                                              (conv1): BaseConv(                                                                                                            (conv): Conv2d(128, 128, kernel_size=(1, 1), stride=(1, 1), bias=False)                                                     (bn): BatchNorm2d(128, eps=0.001, momentum=0.03, affine=True, track_running_stats=True)                                     (act): SiLU(inplace=True)                                                                                                 )                                                                                                                           (conv2): BaseConv(                                                                                                            (conv): Conv2d(128, 128, kernel_size=(3, 3), stride=(1, 1), padding=(1, 1), bias=False)                                     (bn): BatchNorm2d(128, eps=0.001, momentum=0.03, affine=True, track_running_stats=True)                                     (act): SiLU(inplace=True)                                                                                                 )                                                                                                                         )                                                                                                                           (2): Bottleneck(                                                                                                              (conv1): BaseConv(                                                                                                            (conv): Conv2d(128, 128, kernel_size=(1, 1), stride=(1, 1), bias=False)                                                     (bn): BatchNorm2d(128, eps=0.001, momentum=0.03, affine=True, track_running_stats=True)                                     (act): SiLU(inplace=True)                                                                                                 )                                                                                                                           (conv2): BaseConv(                                                                                                            (conv): Conv2d(128, 128, kernel_size=(3, 3), stride=(1, 1), padding=(1, 1), bias=False)                                     (bn): BatchNorm2d(128, eps=0.001, momentum=0.03, affine=True, track_running_stats=True)                                     (act): SiLU(inplace=True)                                                                                                 )                                                                                                                         )                                                 
…
e=5, stride=1, padding=2, dilation=1, ceil_mode=False)                                             (1): MaxPool2d(kernel_size=9, stride=1, padding=4, dilation=1, ceil_mode=False)                                             (2): MaxPool2d(kernel_size=13, stride=1, padding=6, dilation=1, ceil_mode=False)                                          )                                                                                                                           (conv2): BaseConv(                                                                                                            (conv): Conv2d(1024, 512, kernel_size=(1, 1), stride=(1, 1), bias=False)                                                    (bn): BatchNorm2d(512, eps=0.001, momentum=0.03, affine=True, track_running_stats=True)                                     (act): SiLU(inplace=True)                                                                                                 )                                                                                                                         )                                                                                                                           (2): CSPLayer(                                                                                                                (conv1): BaseConv(                                                                                                            (conv): Conv2d(512, 256, kernel_size=(1, 1), stride=(1, 1), bias=False)                                                     (bn): BatchNorm2d(256, eps=0.001, momentum=0.03, affine=True, track_running_stats=True)                                     (act): SiLU(inplace=True)                                                                                                 )                                                                                                                           (conv2): BaseConv(                                                                                                            (conv): Conv2d(512, 256, kernel_size=(1, 1), stride=(1, 1), bias=False)                                                     (bn): BatchNorm2d(256, eps=0.001, momentum=0.03, affine=True, track_running_stats=True)                                     (act): SiLU(inplace=True)                                                                                                 )                                                                                                                           (conv3): BaseConv(                                                                                                            (conv): Conv2d(512, 512, kernel_size=(1, 1), stride=(1, 1), bias=False)                                                     (bn): BatchNorm2d(512, eps=0.001, momentum=0.03, affine=True, track_running_stats=True)                                     (act): SiLU(inplace=True)                                                                                                 )                                                                                                                           (m): Sequential(                                                                                                              (0): Bottleneck(                                                                                                              (conv1): BaseConv(                                                                                                            (conv): Conv2d(256, 256, kernel_size=(1, 1), stride=(1, 1), bias=False)                                                     (bn): BatchNorm2d(256, eps=0.001, momentum=0.03, affine=True, track_running_stats=True)                                     (act): SiLU(inplace=True)                                                                                                 )                                                                                                                           (conv2): BaseConv(                                                                                                            (conv): Conv2d(256, 256, kernel_size=(3, 3), stride=(1, 1), padding=(1, 1), bias=False)                                     (bn): BatchNorm2d(256, eps=0.001, momentum=0.03, affine=True, track_running_stats=True)                                     (act): SiLU(inplace=True)                                                                                                 )                                                                                                                         )                                                 
…
                                                                                                   )                                                                                                                         )                                                                                                                           (upsample): Upsample(scale_factor=2.0, mode='nearest')                                                                      (lateral_conv0): BaseConv(                                                                                                    (conv): Conv2d(512, 256, kernel_size=(1, 1), stride=(1, 1), bias=False)                                                     (bn): BatchNorm2d(256, eps=0.001, momentum=0.03, affine=True, track_running_stats=True)                                     (act): SiLU(inplace=True)                                                                                                 )                                                                                                                           (C3_p4): CSPLayer(                                                                                                            (conv1): BaseConv(                                                                                                            (conv): Conv2d(512, 128, kernel_size=(1, 1), stride=(1, 1), bias=False)                                                     (bn): BatchNorm2d(128, eps=0.001, momentum=0.03, affine=True, track_running_stats=True)                                     (act): SiLU(inplace=True)                                                                                                 )                                                                                                                           (conv2): BaseConv(                                                                                                            (conv): Conv2d(512, 128, kernel_size=(1, 1), stride=(1, 1), bias=False)                                                     (bn): BatchNorm2d(128, eps=0.001, momentum=0.03, affine=True, track_running_stats=True)                                     (act): SiLU(inplace=True)                                                                                                 )                                                                                                                           (conv3): BaseConv(                                                                                                            (conv): Conv2d(256, 256, kernel_size=(1, 1), stride=(1, 1), bias=False)                                                     (bn): BatchNorm2d(256, eps=0.001, momentum=0.03, affine=True, track_running_stats=True)                                     (act): SiLU(inplace=True)                                                                                                 )                                                                                                                           (m): Sequential(                                                                                                              (0): Bottleneck(                                                                                                              (conv1): BaseConv(                                                                                                            (conv): Conv2d(128, 128, kernel_size=(1, 1), stride=(1, 1), bias=False)                                                     (bn): BatchNorm2d(128, eps=0.001, momentum=0.03, affine=True, track_running_stats=True)                                     (act): SiLU(inplace=True)                                                                                                 )                                                                                                                           (conv2): BaseConv(                                                                                                            (conv): Conv2d(128, 128, kernel_size=(3, 3), stride=(1, 1), padding=(1, 1), bias=False)                                     (bn): BatchNorm2d(128, eps=0.001, momentum=0.03, affine=True, track_running_stats=True)                                     (act): SiLU(inplace=True)                                                                                                 )                                                                                                                         )                                                                                                                         )                                                                                                                         )                                                                                                                           (reduce_conv1): BaseConv(                                                                                                     (conv): Conv2d(256, 128, kernel_size=(1, 1), stride=(1, 1), bias=False)                                                     (bn): BatchNorm2d(128, eps=0.001, momentum=0.03, affine=True, track_running_stats=True)                                     (act): SiLU(inplace=True)                                                                                                 )                                                                                                                           (C3_p3): CSPLayer(                                                                                                            (conv1): BaseConv(                                                                                                            (conv): Conv2d(256, 64, kernel_size=(1, 1), stride=(1, 1), bias=False)                                                      (bn): BatchNorm2d(64, eps=0.001, momentum=0.03, affine=True, track_running_stats=True)                                      (act): SiLU(inplace=True)                                                                                                 )                                                                                                                           (conv2): BaseConv(                                                                                                            (conv): Conv2d(256, 64, kernel_size=(1, 1), stride=(1, 1), bias=False)                                                      (bn): BatchNorm2d(64, eps=0.001, momentum=0.03, affine=True, track_running_stats=True)                                      (act): SiLU(inplace=True)                                                                                                 )                                                                                                                           (conv3): BaseConv(                                                                                                            (conv): Conv2d(128, 128, kernel_size=(1, 1), stride=(1, 1), bias=False)                                                     (bn): BatchNorm2d(128, eps=0.001, momentum=0.03, affine=True, track_running_stats=True)                                     (act): SiLU(inplace=True)                                                                                                 )                                                                                                                           (m): Sequential(                                                                                                              (0): Bottleneck(                                                                                                              (conv1): BaseConv(                                                                                                            (conv): Conv2d(64, 64, kernel_size=(1, 1), stride=(1, 1), bias=False)                                                       (bn): BatchNorm2d(64, eps=0.001, momentum=0.03, affine=True, track_running_stats=True)                                      (act): SiLU(inplace=True)                                                                                                 )                                                                                                                           (conv2): BaseConv(                                                                                                            (conv): Conv2d(64, 64, kernel_size=(3, 3), stride=(1, 1), padding=(1, 1), bias=False)                                       (bn): BatchNorm2d(64, eps=0.001, momentum=0.03, affine=True, track_running_stats=True)                                      (act): SiLU(inplace=True)                                                                                                 )                                                                                                                         )                                                                                                                         )                                                                                                                         )                                                                                                                           (bu_conv2): BaseConv(                                                                                                         (conv): Conv2d(128, 128, kernel_size=(3, 3), stride=(2, 2), padding=(1, 1), bias=False)                                     (bn): BatchNorm2d(128, eps=0.001, momentum=0.03, affine=True, track_running_stats=True)                                     (act): SiLU(inplace=True)                                                                                                 )                                                                                                                           (C3_n3): CSPLayer(                                                                                                            (conv1): BaseConv(                                                                                                            (conv): Conv2d(256, 128, kernel_size=(1, 1), stride=(1, 1), bias=False)                                                     (bn): BatchNorm2d(128, eps=0.001, momentum=0.03, affine=True, track_running_stats=True)                                     (act): SiLU(inplace=True)                                                                                                 )                                                                                                                           (conv2): BaseConv(                                                                                                            (conv): Conv2d(256, 128, kernel_size=(1, 1), stride=(1, 1), bias=False)                                                     (bn): BatchNorm2d(128, eps=0.001, momentum=0.03, affine=True, track_running_stats=True)                                     (act): SiLU(inplace=True)                                                                                                 )                                                                                                                           (conv3): BaseConv(                                                                                                            (conv): Conv2d(256, 256, kernel_size=(1, 1), stride=(1, 1), bias=False)                                                     (bn): BatchNorm2d(256, eps=0.001, momentum=0.03, affine=True, track_running_stats=True)                                     (act): SiLU(inplace=True)                                                                                                 )                                                                                                                           (m): Sequential(                                                                                                              (0): Bottleneck(                                                                                                              (conv1): BaseConv(                                                                                                            (conv): Conv2d(128, 128, kernel_size=(1, 1), stride=(1, 1), bias=False)                                                     (bn): BatchNorm2d(128, eps=0.001, momentum=0.03, affine=True, track_running_stats=True)                                     (act): SiLU(inplace=True)                                                                                                 )                                                                                                                           (conv2): BaseConv(                                                                                                            (conv): Conv2d(128, 128, kernel_size=(3, 3), stride=(1, 1), padding=(1, 1), bias=False)                                     (bn): BatchNorm2d(128, eps=0.001, momentum=0.03, affine=True, track_running_stats=True)                                     (act): SiLU(inplace=True)                                                                                                 )                                                                                                                         )                                                                                                                         )                                                                                                                         )                                                                                                                           (bu_conv1): BaseConv(                                                                                                         (conv): Conv2d(256, 256, kernel_size=(3, 3), stride=(2, 2), padding=(1, 1), bias=False)                                     (bn): BatchNorm2d(256, eps=0.001, momentum=0.03, affine=True, track_running_stats=True)                                     (act): SiLU(inplace=True)                                                                                                 )                                                                                                                           (C3_n4): CSPLayer(                                                                                                            (conv1): BaseConv(                                                                                                            (conv): Conv2d(512, 256, kernel_size=(1, 1), stride=(1, 1), bias=False)                                                     (bn): BatchNorm2d(256, eps=0.001, momentum=0.03, affine=True, track_running_stats=True)                                     (act): SiLU(inplace=True)                                                                                                 )                                                                                                                           (conv2): BaseConv(                                                                                                            (conv): Conv2d(512, 256, kernel_size=(1, 1), stride=(1, 1), bias=False)                                                     (bn): BatchNorm2d(256, eps=0.001, momentum=0.03, affine=True, track_running_stats=True)                                     (act): SiLU(inplace=True)                                                                                                 )                                                                                                                           (conv3): BaseConv(                                                                                                            (conv): Conv2d(512, 512, kernel_size=(1, 1), stride=(1, 1), bias=False)                                                     (bn): BatchNorm2d(512, eps=0.001, momentum=0.03, affine=True, track_running_stats=True)                                     (act): SiLU(inplace=True)                                                                                                 )                                                                                                                           (m): Sequential(                                                                                                              (0): Bottleneck(                                                                                                              (conv1): BaseConv(                                                                                                            (conv): Conv2d(256, 256, kernel_size=(1, 1), stride=(1, 1), bias=False)                                                     (bn): BatchNorm2d(256, eps=0.001, momentum=0.03, affine=True, track_running_stats=True)                                     (act): SiLU(inplace=True)                                                                                                 )                                                                                                                           (conv2): BaseConv(                                                                                                            (conv): Conv2d(256, 256, kernel_size=(3, 3), stride=(1, 1), padding=(1, 1), bias=False)                                     (bn): BatchNorm2d(256, eps=0.001, momentum=0.03, affine=True, track_running_stats=True)                                     (act): SiLU(inplace=True)                                                                                                 )                                                                                                                         )                                                 
…
                                                                                                 (0-2): 3 x Conv2d(128, 1, kernel_size=(1, 1), stride=(1, 1))                                                              )                                                                                                                           (stems): ModuleList(                                                                                                          (0): BaseConv(                                                                                                                (conv): Conv2d(128, 128, kernel_size=(1, 1), stride=(1, 1), bias=False)                                                     (bn): BatchNorm2d(128, eps=0.001, momentum=0.03, affine=True, track_running_stats=True)                                     (act): SiLU(inplace=True)                                                                                                 )                                                                                                                           (1): BaseConv(                                                                                                                (conv): Conv2d(256, 128, kernel_size=(1, 1), stride=(1, 1), bias=False)                                                     (bn): BatchNorm2d(128, eps=0.001, momentum=0.03, affine=True, track_running_stats=True)                                     (act): SiLU(inplace=True)                                                                                                 )                                                                                                                           (2): BaseConv(                                                                                                                (conv): Conv2d(512, 128, kernel_size=(1, 1), stride=(1, 1), bias=False)                                                     (bn): BatchNorm2d(128, eps=0.001, momentum=0.03, affine=True, track_running_stats=True)                                     (act): SiLU(inplace=True)                                                                                                 )                                                                                                                         )                                                 
…
[[1, "'instances_val2017.json'"]], "self.warmup_epochs": [[1, "5"]], "self.warmup_lr": [[1, "0"]], "self.weight_decay": [[1, "0.0005"]], "self.width": [[1, "0.5"]], "YOLOX": [[2.0, "<class 'yolox.models.yolox.YOLOX'>"]], "YOLOPAFPN": [[2.0, "<class 'yolox.models.yolo_pafpn.YOLOPAFPN'>"]], "YOLOXHead": [[2.0, "<class 'yolox.models.yolo_head.YOLOXHead'>"]], "init_yolo": [[4.0, "<function Exp.get_model.<locals>.init_yolo at 0x7fb8c3463550>"]], "in_channels": [[11.0, "[256, 512, 1024]"]], "backbone": [[12.0, "YOLOPAFPN(  (backbone): CSPDarknet(    (stem): Focus(      (conv): BaseConv(        (conv): Conv2d(12, 32, kernel_size=(3, 3), stride=(1, 1), padding=(1, 1), bias=False)        (bn): BatchNorm2d(32, eps=1e-05, momentum=0.1, affine=True, track_running_stats=True)        (act): SiLU(inplace=True)      )    )    (dark2): Sequential(      (0): BaseConv(        (conv): Conv2d(32, 64, kernel_size=(3, 3), stride=(2, 2), padding=(1, 1), bias=False)        (bn): BatchNorm2d(64, eps=1e-05, momentum=0.1, affine=True, track_running_stats=True)        (act): SiLU(inplace=True)      )      (1): CSPLayer(        (conv1): BaseConv(          (conv): Conv2d(64, 32, kernel_size=(1, 1), stride=(1, 1), bias=False)          (bn): BatchNorm2d(32, eps=1e-05, momentum=0.1, affine=True, track_running_stats=True)          (act): SiLU(inplace=True)        )        (conv2): BaseConv(          (conv): Conv2d(64, 32, kernel_size=(1, 1), stride=(1, 1), bias=False)          (bn): BatchNorm2d(32, eps=1e-05, momentum=0.1, affine=True, track_running_stats=True)          (act): SiLU(inplace=True)        )        (conv3): BaseConv(          (conv): Conv2d(64, 64, kernel_size=(1, 1), stride=(1, 1), bias=False)          (bn): BatchNorm2d(64, eps=1e-05, momentum=0.1, affine=True, track_running_stats=True)          (act): SiLU(inplace=True)        )        (m): Sequential(          (0): Bottleneck(            (conv1): BaseConv(              (conv): Conv2d(32, 32, kernel_size=(1, 1), stride=(1, 1), bias=False)              (bn): BatchNorm2d(32, eps=1e-05, momentum=0.1, affine=True, track_running_stats=True)              (act): SiLU(inplace=True)            )            (conv2): BaseConv(              (conv): Conv2d(32, 32, kernel_size=(3, 3), stride=(1, 1), padding=(1, 1), bias=False)              (bn): BatchNorm2d(32, eps=1e-05, momentum=0.1, affine=True, track_running_stats=True)              (act): SiLU(inplace=True)            )          )        )      )    )    (dark3): Sequential(      (0): BaseConv(        (conv): Conv2d(64, 128, kernel_size=(3, 3), stride=(2, 2), padding=(1, 1), bias=False)        (bn): BatchNorm2d(128, eps=1e-05, momentum=0.1, affine=True, track_running_stats=True)        (act): SiLU(inplace=True)      )      (1): CSPLayer(        (conv1): BaseConv(          (conv): Conv2d(128, 64, kernel_size=(1, 1), stride=(1, 1), bias=False)          (bn): BatchNorm2d(64, eps=1e-05, momentum=0.1, affine=True, track_running_stats=True)          (act): SiLU(inplace=True)        )        (conv2): BaseConv(          (conv): Conv2d(128, 64, kernel_size=(1, 1), stride=(1, 1), bias=False)          (bn): BatchNorm2d(64, eps=1e-05, momentum=0.1, affine=True, track_running_stats=True)          (act): SiLU(inplace=True)        )        (conv3): BaseConv(          (conv): Conv2d(128, 128, kernel_size=(1, 1), stride=(1, 1), bias=False)          (bn): BatchNorm2d(128, eps=1e-05, momentum=0.1, affine=True, track_running_stats=True)          (act): SiLU(inplace=True)        )        (m): Sequential(          (0): Bottleneck(            (conv1): BaseConv(              (conv): Conv2d(64, 64, kernel_size=(1, 1), stride=(1, 1), bias=False)              (bn): BatchNorm2d(64, eps=1e-05, momentum=0.1, affine=True, track_running_stats=True)              (act): SiLU(inplace=True)            )            (conv2): BaseConv(              (conv): Conv2d(64, 64, kernel_size=(3, 3), stride=(1, 1), padding=(1, 1), bias=False)              (bn): BatchNorm2d(64, eps=1e-05, momentum=0.1, affine=True, track_running_stats=True)              (act): SiLU(inplace=True)            )          )          (1): Bottleneck(            (conv1): BaseConv(              (conv): Conv2d(64, 64, kernel_size=(1, 1), stride=(1, 1), bias=False)              (bn): BatchNorm2d(64, eps=1e-05, momentum=0.1, affine=True, track_running_stats=True)              (act): SiLU(inplace=True)            )            (conv2): BaseConv(              (conv): Conv2d(64, 64, kernel_size=(3, 3), stride=(1, 1), padding=(1, 1), bias=False)              (bn): BatchNorm2d(64, eps=1e-05, momentum=0.1, affine=True, track_runnin...ffine=True, track_running_stats=True)      (act): SiLU(inplace=True)    )    (conv2): BaseConv(      (conv): Conv2d(256, 64, kernel_size=(1, 1), stride=(1, 1), bias=False)      (bn): BatchNorm2d(64, eps=1e-05, momentum=0.1, affine=True, track_running_stats=True)      (act): SiLU(inplace=True)    )    (conv3): BaseConv(      (conv): Conv2d(128, 128, kernel_size=(1, 1), stride=(1, 1), bias=False)      (bn): BatchNorm2d(128, eps=1e-05, momentum=0.1, affine=True, track_running_stats=True)      (act): SiLU(inplace=True)    )    (m): Sequential(      (0): Bottleneck(        (conv1): BaseConv(          (conv): Conv2d(64, 64, kernel_size=(1, 1), stride=(1, 1), bias=False)          (bn): BatchNorm2d(64, eps=1e-05, momentum=0.1, affine=True, track_running_stats=True)          (act): SiLU(inplace=True)        )        (conv2): BaseConv(          (conv): Conv2d(64, 64, kernel_size=(3, 3), stride=(1, 1), padding=(1, 1), bias=False)          (bn): BatchNorm2d(64, eps=1e-05, momentum=0.1, affine=True, track_running_stats=True)          (act): SiLU(inplace=True)        )      )    )  )  (bu_conv2): BaseConv(    (conv): Conv2d(128, 128, kernel_size=(3, 3), stride=(2, 2), padding=(1, 1), bias=False)    (bn): BatchNorm2d(128, eps=1e-05, momentum=0.1, affine=True, track_running_stats=True)    (act): SiLU(inplace=True)  )  (C3_n3): CSPLayer(    (conv1): BaseConv(      (conv): Conv2d(256, 128, kernel_size=(1, 1), stride=(1, 1), bias=False)      (bn): BatchNorm2d(128, eps=1e-05, momentum=0.1, affine=True, track_running_stats=True)      (act): SiLU(inplace=True)    )    (conv2): BaseConv(      (conv): Conv2d(256, 128, kernel_size=(1, 1), stride=(1, 1), bias=False)      (bn): BatchNorm2d(128, eps=1e-05, momentum=0.1, affine=True, track_running_stats=True)      (act): SiLU(inplace=True)    )    (conv3): BaseConv(      (conv): Conv2d(256, 256, kernel_size=(1, 1), stride=(1, 1), bias=False)      (bn): BatchNorm2d(256, eps=1e-05, momentum=0.1, affine=True, track_running_stats=True)      (act): SiLU(inplace=True)    )    (m): Sequential(      (0): Bottleneck(        (conv1): BaseConv(          (conv): Conv2d(128, 128, kernel_size=(1, 1), stride=(1, 1), bias=False)          (bn): BatchNorm2d(128, eps=1e-05, momentum=0.1, affine=True, track_running_stats=True)          (act): SiLU(inplace=True)        )        (conv2): BaseConv(          (conv): Conv2d(128, 128, kernel_size=(3, 3), stride=(1, 1), padding=(1, 1), bias=False)          (bn): BatchNorm2d(128, eps=1e-05, momentum=0.1, affine=True, track_running_stats=True)          (act): SiLU(inplace=True)        )      )    )  )  (bu_conv1): BaseConv(    (conv): Conv2d(256, 256, kernel_size=(3, 3), stride=(2, 2), padding=(1, 1), bias=False)    (bn): BatchNorm2d(256, eps=1e-05, momentum=0.1, affine=True, track_running_stats=True)    (act): SiLU(inplace=True)  )  (C3_n4): CSPLayer(    (conv1): BaseConv(      (conv): Conv2d(512, 256, kernel_size=(1, 1), stride=(1, 1), bias=False)      (bn): BatchNorm2d(256, eps=1e-05, momentum=0.1, affine=True, track_running_stats=True)      (act): SiLU(inplace=True)    )    (conv2): BaseConv(      (conv): Conv2d(512, 256, kernel_size=(1, 1), stride=(1, 1), bias=False)      (bn): BatchNorm2d(256, eps=1e-05, momentum=0.1, affine=True, track_running_stats=True)      (act): SiLU(inplace=True)    )    (conv3): BaseConv(      (conv): Conv2d(512, 512, kernel_size=(1, 1), stride=(1, 1), bias=False)      (bn): BatchNorm2d(512, eps=1e-05, momentum=0.1, affine=True, track_running_stats=True)      (act): SiLU(inplace=True)    )    (m): Sequential(      (0): Bottleneck(        (conv1): BaseConv(          (conv): Conv2d(256, 256, kernel_size=(1, 1), stride=(1, 1), bias=False)          (bn): BatchNorm2d(256, eps=1e-05, momentum=0.1, affine=True, track_running_stats=True)          (act): SiLU(inplace=True)        )        (conv2): BaseConv(          (conv): Conv2d(256, 256, kernel_size=(3, 3), stride=(1, 1), padding=(1, 1), bias=False)          (bn): BatchNorm2d(256, eps=1e-05, momentum=0.1, affine=True, track_running_stats=True)          (act): SiLU(inplace=True)        )      )    )  ))"], [16.0, "YOLOPAFPN(  (backbone): CSPDarknet(    (stem): Focus(      (conv): BaseConv(        (conv): Conv2d(12, 32, kernel_size=(3, 3), stride=(1, 1), padding=(1, 1), bias=False)        (bn): BatchNorm2d(32, eps=0.001, momentum=0.03, affine=True, track_running_stats=True)        (act): SiLU(inplace=True)      )    )    (dark2): Sequential(      (0): BaseConv(        (conv): Conv2d(32, 64, kernel_size=(3, 3), stride=(2, 2), padding=(1, 1), bias=False)        (bn): BatchNorm2d(64, eps=0.001, momentum=0.03, affine=True, track_running_stats=True)        (act): SiLU(inplace=True)      )      (1): CSPLayer(        (conv1): BaseConv(          (conv): Conv2d(64, 32, kernel_size=(1, 1), stride=(1, 1), bias=False)          (bn): BatchNorm2d(32, eps=0.001, momentum=0.03, affine=True, track_running_stats=True)          (act): SiLU(inplace=True)        )        (conv2): BaseConv(          (conv): Conv2d(64, 32, kernel_size=(1, 1), stride=(1, 1), bias=False)          (bn): BatchNorm2d(32, eps=0.001, momentum=0.03, affine=True, track_running_stats=True)          (act): SiLU(inplace=True)        )        (conv3): BaseConv(          (conv): Conv2d(64, 64, kernel_size=(1, 1), stride=(1, 1), bias=False)          (bn): BatchNorm2d(64, eps=0.001, momentum=0.03, affine=True, track_running_stats=True)          (act): SiLU(inplace=True)        )        (m): Sequential(          (0): Bottleneck(            (conv1): BaseConv(              (conv): Conv2d(32, 32, kernel_size=(1, 1), stride=(1, 1), bias=False)              (bn): BatchNorm2d(32, eps=0.001, momentum=0.03, affine=True, track_running_stats=True)              (act): SiLU(inplace=True)            )            (conv2): BaseConv(              (conv): Conv2d(32, 32, kernel_size=(3, 3), stride=(1, 1), padding=(1, 1), bias=False)              (bn): BatchNorm2d(32, eps=0.001, momentum=0.03, affine=True, track_running_stats=True)              (act): SiLU(inplace=True)            )          )        )      )    )    (dark3): Sequential(      (0): BaseConv(        (conv): Conv2d(64, 128, kernel_size=(3, 3), stride=(2, 2), padding=(1, 1), bias=False)        (bn): BatchNorm2d(128, eps=0.001, momentum=0.03, affine=True, track_running_stats=True)        (act): SiLU(inplace=True)      )      (1): CSPLayer(        (conv1): BaseConv(          (conv): Conv2d(128, 64, kernel_size=(1, 1), stride=(1, 1), bias=False)          (bn): BatchNorm2d(64, eps=0.001, momentum=0.03, affine=True, track_running_stats=True)          (act): SiLU(inplace=True)        )        (conv2): BaseConv(          (conv): Conv2d(128, 64, kernel_size=(1, 1), stride=(1, 1), bias=False)          (bn): BatchNorm2d(64, eps=0.001, momentum=0.03, affine=True, track_running_stats=True)          (act): SiLU(inplace=True)        )        (conv3): BaseConv(          (conv): Conv2d(128, 128, kernel_size=(1, 1), stride=(1, 1), bias=False)          (bn): BatchNorm2d(128, eps=0.001, momentum=0.03, affine=True, track_running_stats=True)          (act): SiLU(inplace=True)        )        (m): Sequential(          (0): Bottleneck(            (conv1): BaseConv(              (conv): Conv2d(64, 64, kernel_size=(1, 1), stride=(1, 1), bias=False)              (bn): BatchNorm2d(64, eps=0.001, momentum=0.03, affine=True, track_running_stats=True)              (act): SiLU(inplace=True)            )            (conv2): BaseConv(              (conv): Conv2d(64, 64, kernel_size=(3, 3), stride=(1, 1), padding=(1, 1), bias=False)              (bn): BatchNorm2d(64, eps=0.001, momentum=0.03, affine=True, track_running_stats=True)              (act): SiLU(inplace=True)            )          )          (1): Bottleneck(            (conv1): BaseConv(              (conv): Conv2d(64, 64, kernel_size=(1, 1), stride=(1, 1), bias=False)              (bn): BatchNorm2d(64, eps=0.001, momentum=0.03, affine=True, track_running_stats=True)              (act): SiLU(inplace=True)            )            (conv2): BaseConv(              (conv): Conv2d(64, 64, kernel_size=(3, 3), stride=(1, 1), padding=(1, 1), bias=False)              (bn): BatchNorm2d(64, eps=0.001, momentum=0.03, affine=Tru...k_running_stats=True)      (act): SiLU(inplace=True)    )    (conv2): BaseConv(      (conv): Conv2d(256, 64, kernel_size=(1, 1), stride=(1, 1), bias=False)      (bn): BatchNorm2d(64, eps=0.001, momentum=0.03, affine=True, track_running_stats=True)      (act): SiLU(inplace=True)    )    (conv3): BaseConv(      (conv): Conv2d(128, 128, kernel_size=(1, 1), stride=(1, 1), bias=False)      (bn): BatchNorm2d(128, eps=0.001, momentum=0.03, affine=True, track_running_stats=True)      (act): SiLU(inplace=True)    )    (m): Sequential(      (0): Bottleneck(        (conv1): BaseConv(          (conv): Conv2d(64, 64, kernel_size=(1, 1), stride=(1, 1), bias=False)          (bn): BatchNorm2d(64, eps=0.001, momentum=0.03, affine=True, track_running_stats=True)          (act): SiLU(inplace=True)        )        (conv2): BaseConv(          (conv): Conv2d(64, 64, kernel_size=(3, 3), stride=(1, 1), padding=(1, 1), bias=False)          (bn): BatchNorm2d(64, eps=0.001, momentum=0.03, affine=True, track_running_stats=True)          (act): SiLU(inplace=True)        )      )    )  )  (bu_conv2): BaseConv(    (conv): Conv2d(128, 128, kernel_size=(3, 3), stride=(2, 2), padding=(1, 1), bias=False)    (bn): BatchNorm2d(128, eps=0.001, momentum=0.03, affine=True, track_running_stats=True)    (act): SiLU(inplace=True)  )  (C3_n3): CSPLayer(    (conv1): BaseConv(      (conv): Conv2d(256, 128, kernel_size=(1, 1), stride=(1, 1), bias=False)      (bn): BatchNorm2d(128, eps=0.001, momentum=0.03, affine=True, track_running_stats=True)      (act): SiLU(inplace=True)    )    (conv2): BaseConv(      (conv): Conv2d(256, 128, kernel_size=(1, 1), stride=(1, 1), bias=False)      (bn): BatchNorm2d(128, eps=0.001, momentum=0.03, affine=True, track_running_stats=True)      (act): SiLU(inplace=True)    )    (conv3): BaseConv(      (conv): Conv2d(256, 256, kernel_size=(1, 1), stride=(1, 1), bias=False)      (bn): BatchNorm2d(256, eps=0.001, momentum=0.03, affine=True, track_running_stats=True)      (act): SiLU(inplace=True)    )    (m): Sequential(      (0): Bottleneck(        (conv1): BaseConv(          (conv): Conv2d(128, 128, kernel_size=(1, 1), stride=(1, 1), bias=False)          (bn): BatchNorm2d(128, eps=0.001, momentum=0.03, affine=True, track_running_stats=True)          (act): SiLU(inplace=True)        )        (conv2): BaseConv(          (conv): Conv2d(128, 128, kernel_size=(3, 3), stride=(1, 1), padding=(1, 1), bias=False)          (bn): BatchNorm2d(128, eps=0.001, momentum=0.03, affine=True, track_running_stats=True)          (act): SiLU(inplace=True)        )      )    )  )  (bu_conv1): BaseConv(    (conv): Conv2d(256, 256, kernel_size=(3, 3), stride=(2, 2), padding=(1, 1), bias=False)    (bn): BatchNorm2d(256, eps=0.001, momentum=0.03, affine=True, track_running_stats=True)    (act): SiLU(inplace=True)  )  (C3_n4): CSPLayer(    (conv1): BaseConv(      (conv): Conv2d(512, 256, kernel_size=(1, 1), stride=(1, 1), bias=False)      (bn): BatchNorm2d(256, eps=0.001, momentum=0.03, affine=True, track_running_stats=True)      (act): SiLU(inplace=True)    )    (conv2): BaseConv(      (conv): Conv2d(512, 256, kernel_size=(1, 1), stride=(1, 1), bias=False)      (bn): BatchNorm2d(256, eps=0.001, momentum=0.03, affine=True, track_running_stats=True)      (act): SiLU(inplace=True)    )    (conv3): BaseConv(      (conv): Conv2d(512, 512, kernel_size=(1, 1), stride=(1, 1), bias=False)      (bn): BatchNorm2d(512, eps=0.001, momentum=0.03, affine=True, track_running_stats=True)      (act): SiLU(inplace=True)    )    (m): Sequential(      (0): Bottleneck(        (conv1): BaseConv(          (conv): Conv2d(256, 256, kernel_size=(1, 1), stride=(1, 1), bias=False)          (bn): BatchNorm2d(256, eps=0.001, momentum=0.03, affine=True, track_running_stats=True)          (act): SiLU(inplace=True)        )        (conv2): BaseConv(          (conv): Conv2d(256, 256, kernel_size=(3, 3), stride=(1, 1), padding=(1, 1), bias=False)          (bn): BatchNorm2d(256, eps=0.001, momentum=0.03, affine=True, track_running_stats=True)          (act): SiLU(inplace=True)        )      )    )  ))"]], "head": [[13.0, "YOLOXHead(  (cls_convs): ModuleList(    (0-2): 3 x Sequential(      (0): BaseConv(        (conv): Conv2d(128, 128, kernel_size=(3, 3), stride=(1, 1), padding=(1, 1), bias=False)        (bn): BatchNorm2d(128, eps=1e-05, momentum=0.1, affine=True, track_running_stats=True)        (act): SiLU(inplace=True)      )      (1): BaseConv(        (conv): Conv2d(128, 128, kernel_size=(3, 3), stride=(1, 1), padding=(1, 1), bias=False)        (bn): BatchNorm2d(128, eps=1e-05, momentum=0.1, affine=True, track_running_stats=True)        (act): SiLU(inplace=True)      )    )  )  (reg_convs): ModuleList(    (0-2): 3 x Sequential(      (0): BaseConv(        (conv): Conv2d(128, 128, kernel_size=(3, 3), stride=(1, 1), padding=(1, 1), bias=False)        (bn): BatchNorm2d(128, eps=1e-05, momentum=0.1, affine=True, track_running_stats=True)        (act): SiLU(inplace=True)      )      (1): BaseConv(        (conv): Conv2d(128, 128, kernel_size=(3, 3), stride=(1, 1), padding=(1, 1), bias=False)        (bn): BatchNorm2d(128, eps=1e-05, momentum=0.1, affine=True, track_running_stats=True)        (act): SiLU(inplace=True)      )    )  )  (cls_preds): ModuleList(    (0-2): 3 x Conv2d(128, 80, kernel_size=(1, 1), stride=(1, 1))  )  (reg_preds): ModuleList(    (0-2): 3 x Conv2d(128, 4, kernel_size=(1, 1), stride=(1, 1))  )  (obj_preds): ModuleList(    (0-2): 3 x Conv2d(128, 1, kernel_size=(1, 1), stride=(1, 1))  )  (stems): ModuleList(    (0): BaseConv(      (conv): Conv2d(128, 128, kernel_size=(1, 1), stride=(1, 1), bias=False)      (bn): BatchNorm2d(128, eps=1e-05, momentum=0.1, affine=True, track_running_stats=True)      (act): SiLU(inplace=True)    )    (1): BaseConv(      (conv): Conv2d(256, 128, kernel_size=(1, 1), stride=(1, 1), bias=False)      (bn): BatchNorm2d(128, eps=1e-05, momentum=0.1, affine=True, track_running_stats=True)      (act): SiLU(inplace=True)    )    (2): BaseConv(      (conv): Conv2d(512, 128, kernel_size=(1, 1), stride=(1, 1), bias=False)      (bn): BatchNorm2d(128, eps=1e-05, momentum=0.1, affine=True, track_running_stats=True)      (act): SiLU(inplace=True)    )  )  (l1_loss): L1Loss()  (bcewithlog_loss): BCEWithLogitsLoss()  (iou_loss): IOUloss())"], [16.0, "YOLOXHead(  (cls_convs): ModuleList(    (0-2): 3 x Sequential(      (0): BaseConv(        (conv): Conv2d(128, 128, kernel_size=(3, 3), stride=(1, 1), padding=(1, 1), bias=False)        (bn): BatchNorm2d(128, eps=0.001, momentum=0.03, affine=True, track_running_stats=True)        (act): SiLU(inplace=True)      )      (1): BaseConv(        (conv): Conv2d(128, 128, kernel_size=(3, 3), stride=(1, 1), padding=(1, 1), bias=False)        (bn): BatchNorm2d(128, eps=0.001, momentum=0.03, affine=True, track_running_stats=True)        (act): SiLU(inplace=True)      )    )  )  (reg_convs): ModuleList(    (0-2): 3 x Sequential(      (0): BaseConv(        (conv): Conv2d(128, 128, kernel_size=(3, 3), stride=(1, 1), padding=(1, 1), bias=False)        (bn): BatchNorm2d(128, eps=0.001, momentum=0.03, affine=True, track_running_stats=True)        (act): SiLU(inplace=True)      )      (1): BaseConv(        (conv): Conv2d(128, 128, kernel_size=(3, 3), stride=(1, 1), padding=(1, 1), bias=False)        (bn): BatchNorm2d(128, eps=0.001, momentum=0.03, affine=True, track_running_stats=True)        (act): SiLU(inplace=True)      )    )  )  (cls_preds): ModuleList(    (0-2): 3 x Conv2d(128, 80, kernel_size=(1, 1), stride=(1, 1))  )  (reg_preds): ModuleList(    (0-2): 3 x Conv2d(128, 4, kernel_size=(1, 1), stride=(1, 1))  )  (obj_preds): ModuleList(    (0-2): 3 x Conv2d(128, 1, kernel_size=(1, 1), stride=(1, 1))  )  (stems): ModuleList(    (0): BaseConv(      (conv): Conv2d(128, 128, kernel_size=(1, 1), stride=(1, 1), bias=False)      (bn): BatchNorm2d(128, eps=0.001, momentum=0.03, affine=True, track_running_stats=True)      (act): SiLU(inplace=True)    )    (1): BaseConv(      (conv): Conv2d(256, 128, kernel_size=(1, 1), stride=(1, 1), bias=False)      (bn): BatchNorm2d(128, eps=0.001, momentum=0.03, affine=True, track_running_stats=True)      (act): SiLU(inplace=True)    )    (2): BaseConv(      (conv): Conv2d(512, 128, kernel_size=(1, 1), stride=(1, 1), bias=False)      (bn): BatchNorm2d(128, eps=0.001, momentum=0.03, affine=True, track_running_stats=True)      (act): SiLU(inplace=True)    )  )  (l1_loss): L1Loss()  (bcewithlog_loss): BCEWithLogitsLoss()  (iou_loss): IOUloss())"]], "self.model": [[14.0, "YOLOX(  (backbone): YOLOPAFPN(    (backbone): CSPDarknet(      (stem): Focus(        (conv): BaseConv(          (conv): Conv2d(12, 32, kernel_size=(3, 3), stride=(1, 1), padding=(1, 1), bias=False)          (bn): BatchNorm2d(32, eps=1e-05, momentum=0.1, affine=True, track_running_stats=True)          (act): SiLU(inplace=True)        )      )      (dark2): Sequential(        (0): BaseConv(          (conv): Conv2d(32, 64, kernel_size=(3, 3), stride=(2, 2), padding=(1, 1), bias=False)          (bn): BatchNorm2d(64, eps=1e-05, momentum=0.1, affine=True, track_running_stats=True)          (act): SiLU(inplace=True)        )        (1): CSPLayer(          (conv1): BaseConv(            (conv): Conv2d(64, 32, kernel_size=(1, 1), stride=(1, 1), bias=False)            (bn): BatchNorm2d(32, eps=1e-05, momentum=0.1, affine=True, track_running_stats=True)            (act): SiLU(inplace=True)          )          (conv2): BaseConv(            (conv): Conv2d(64, 32, kernel_size=(1, 1), stride=(1, 1), bias=False)            (bn): BatchNorm2d(32, eps=1e-05, momentum=0.1, affine=True, track_running_stats=True)            (act): SiLU(inplace=True)          )          (conv3): BaseConv(            (conv): Conv2d(64, 64, kernel_size=(1, 1), stride=(1, 1), bias=False)            (bn): BatchNorm2d(64, eps=1e-05, momentum=0.1, affine=True, track_running_stats=True)            (act): SiLU(inplace=True)          )          (m): Sequential(            (0): Bottleneck(              (conv1): BaseConv(                (conv): Conv2d(32, 32, kernel_size=(1, 1), stride=(1, 1), bias=False)                (bn): BatchNorm2d(32, eps=1e-05, momentum=0.1, affine=True, track_running_stats=True)                (act): SiLU(inplace=True)              )              (conv2): BaseConv(                (conv): Conv2d(32, 32, kernel_size=(3, 3), stride=(1, 1), padding=(1, 1), bias=False)                (bn): BatchNorm2d(32, eps=1e-05, momentum=0.1, affine=True, track_running_stats=True)                (act): SiLU(inplace=True)              )            )          )        )      )      (dark3): Sequential(        (0): BaseConv(          (conv): Conv2d(64, 128, kernel_size=(3, 3), stride=(2, 2), padding=(1, 1), bias=False)          (bn): BatchNorm2d(128, eps=1e-05, momentum=0.1, affine=True, track_running_stats=True)          (act): SiLU(inplace=True)        )        (1): CSPLayer(          (conv1): BaseConv(            (conv): Conv2d(128, 64, kernel_size=(1, 1), stride=(1, 1), bias=False)            (bn): BatchNorm2d(64, eps=1e-05, momentum=0.1, affine=True, track_running_stats=True)            (act): SiLU(inplace=True)          )          (conv2): BaseConv(            (conv): Conv2d(128, 64, kernel_size=(1, 1), stride=(1, 1), bias=False)            (bn): BatchNorm2d(64, eps=1e-05, momentum=0.1, affine=True, track_running_stats=True)            (act): SiLU(inplace=True)          )          (conv3): BaseConv(            (conv): Conv2d(128, 128, kernel_size=(1, 1), stride=(1, 1), bias=False)            (bn): BatchNorm2d(128, eps=1e-05, momentum=0.1, affine=True, track_running_stats=True)            (act): SiLU(inplace=True)          )          (m): Sequential(            (0): Bottleneck(              (conv1): BaseConv(                (conv): Conv2d(64, 64, kernel_size=(1, 1), stride=(1, 1), bias=False)                (bn): BatchNorm2d(64, eps=1e-05, momentum=0.1, affine=True, track_running_stats=True)                (act): SiLU(inplace=True)              )              (conv2): BaseConv(                (conv): Conv2d(64, 64, kernel_size=(3, 3), stride=(1, 1), padding=(1, 1), bias=False)                (bn): BatchNorm2d(64, eps=1e-05, momentum=0.1, affine=True, track_running_stats=True)                (act): SiLU(inplace=True)              )            )            (1): Bottleneck(              (conv1): BaseConv(                (conv): Conv2d(64, 64, kernel_size=(1, 1), stride=(1, 1), bias=False)                (bn): BatchNorm2d(64, eps=1e-05, momentum=0.1, affine=True, track_running_stats=True)                (act): SiLU(inplace=True)              )              (conv2): BaseConv(                (conv): Conv2d(64, 64, kernel_size=(3, 3), stride=(1, 1), padding=(1, 1), bias=False)                (bn): BatchNorm2d(64, eps=1e-05, momentum=0.1, affine=True, track_running_stats=True)                (act): SiLU(inplace=True)              )            )            (2): Bottleneck(              (conv1): BaseConv(                (conv): Conv2d(64, 64, kernel_size=(1, 1), stride=(1, 1), bias=False)                (bn): BatchNorm2d(64, eps=1e-05, momentum=0.1, affine=True, track_running_stats=True)                (act): SiLU(inplace=True)              )              (conv2): BaseConv(                (conv): Conv2d(64, 64, kernel_size=(3, 3), stride=(1, 1), padding=(1, 1), bias=False)                (bn): BatchNorm2d(64, eps=1e-05, momentum=0.1, affine=True, track_running_stats=True)                (act): SiLU(inplace=True)              )            )          )        )      )      (dark4): Sequential(        (0): BaseConv(          (conv): Conv2d(128, 256, kernel_size=(3, 3), stride=(2, 2), padding=(1, 1), bias=False)          (bn): BatchNorm2d(256, eps=1e-05, momentum=0.1, affine=True, track_running_stats=True)          (act): SiLU(inplace=True)        )        (1): CSPLayer(          (conv1): BaseConv(            (conv): Conv2d(256, 128, kernel_size=(1, 1), stride=(1, 1), bias=False)            (bn): BatchNorm2d(128, eps=1e-05, momentum=0.1, affine=True, track_running_stats=True)            (act): SiLU(inplace=True)          )          (conv2): BaseConv(            (conv): Conv2d(256, 128, kernel_size=(1, 1), stride=(1, 1), bias=False)            (bn): BatchNorm2d(128, eps=1e-05, momentum=0.1, affine=True, track_running_stats=True)            (act): SiLU(inplace=True)          )          (conv3): BaseConv(            (conv): Conv2d(256, 256, kernel_size=(1, 1), stride=(1, 1), bias=False)            (bn): BatchNorm2d(256, eps=1e-05, momentum=0.1, affine=True, track_running_stats=True)            (act): SiLU(inplace=True)          )          (m): Sequential(            (0): Bottleneck(              (conv1): BaseConv(                (conv): Conv2d(128, 128, kernel_size=(1, 1), stride=(1, 1), bias=False)                (bn): BatchNorm2d(128, eps=1e-05, momentum=0.1, affine=True, track_running_stats=True)                (act): SiLU(inplace=True)              )              (conv2): BaseConv(                (conv): Conv2d(128, 128, kernel_size=(3, 3), stride=(1, 1), padding=(1, 1), bias=False)                (bn): BatchNorm2d(128, eps=1e-05, momentum=0.1, affine=True, track_running_stats=True)                (act): SiLU(inplace=True)              )            )            (1): Bottleneck(              (conv1): BaseConv(                (conv): Conv2d(128, 128, kernel_size=(1, 1), stride=(1, 1), bias=False)                (bn): BatchNorm2d(128, eps=1e-05, momentum=0.1, affine=True, track_running_stats=True)                (act): SiLU(inplace=True)              )              (conv2): BaseConv(                (conv): Conv2d(128, 128, kernel_size=(3, 3), stride=(1, 1), padding=(1, 1), bias=False)                (bn): BatchNorm2d(128, eps=1e-05, momentum=0.1, affine=True, track_running_stats=True)                (act): SiLU(inplace=True)              )            )            (2): Bottleneck(              (conv1): BaseConv(                (conv): Conv2d(128, 128, kernel_size=(1, 1), stride=(1, 1), bias=False)                (bn): BatchNorm2d(128, eps=1e-05, momentum=0.1, affine=True, track_running_stats=True)                (act): SiLU(inplace=True)              )              (conv2): BaseConv(                (conv): Conv2d(128, 128, kernel_size=(3, 3), stride=(1, 1), padding=(1, 1), bias=False)                (bn): BatchNorm2d(128, eps=1e-05, momentum=0.1, affine=True, track_running_stats=True)                (act): SiLU(inplace=True)              )            )          )        )      )      (dark5): Sequential(        (0): BaseConv(          (conv): Conv2d(256, 512, kernel_size=(3, 3), stride=(2, 2), padding=(1, 1), bias=False)          (bn): BatchNorm2d(512, eps=1e-05, momentum=0.1, affine=True, track_running_stats=True)          (act): SiLU(inplace=True)        )        (1): SPPBottleneck(          (conv1): BaseConv(            (conv): Conv2d(512, 256, kernel_size=(1, 1), stride=(1, 1), bias=False)            (bn): BatchNorm2d(256, eps=1e-05, momentum=0.1, affine=True, track_running_stats=True)            (act): SiLU(inplace=True)          )          (m): ModuleList(            (0): MaxPool2d(kernel_size=5, stride=1, padding=2, dilation=1, ceil_mode=False)            (1): MaxPool2d(kernel_size=9, stride=1, padding=4, dilation=1, ceil_mode=False)            (2): MaxPool2d(kernel_size=13, stride=1, padding=6, dilation=1, ceil_mode=False)          )          (conv2): BaseConv(            (conv): Conv2d(1024, 512, kernel_size=(1, 1), stride=(1, 1), bias=False)            (bn): BatchNorm2d(512, eps=1e-05, momentum=0.1, affine=True, track_running_stats=True)            (act): SiLU(inplace=True)          )        )        (2): CSPLayer(          (conv1): BaseConv(            (conv): Conv2d(512, 256, kernel_size=(1, 1), stride=(1, 1), bias=False)            (bn): BatchNorm2d(256, eps=1e-05, momentum=0.1, affine=True, track_running_stats=True)            (act): SiLU(inplace=True)          )          (conv2): BaseConv(            (conv): Conv2d(512, 256, kernel_size=(1, 1), stride=(1, 1), bias=False)            (bn): BatchNorm2d(256, eps=1e-05, momentum=0.1, affine=True, track_running_stats=True)            (act): SiLU(inplace=True)          )          (conv3): BaseConv(            (conv): Conv2d(512, 512, kernel_size=(1, 1), stride=(1, 1), bias=False)            (bn): BatchNorm2d(512, eps=1e-05, momentum=0.1, affine=True, track_running_stats=True)            (act): SiLU(inplace=True)          )          (m): Sequential(            (0): Bottleneck(              (conv1): BaseConv(                (conv): Conv2d(256, 256, kernel_size=(1, 1), stride=(1, 1), bias=False)                (bn): BatchNorm2d(256, eps=1e-05, momentum=0.1, affine=True, track_running_stats=True)                (act): SiLU(inplace=True)              )              (conv2): BaseConv(                (conv): Conv2d(256, 256, kernel_size=(3, 3), stride=(1, 1), padding=(1, 1), bias=False)                (bn): BatchNorm2d(256, eps=1e-05, momentum=0.1, affine=True, track_running_stats=True)                (act): SiLU(inplace=True)              )            )          )        )      )    )    (upsample): Upsample(scale_factor=2.0, mode='nearest')    (lateral_conv0): BaseConv(      (conv): Conv2d(512, 256, kernel_size=(1, 1), stride=(1, 1), bias=False)      (bn): BatchNorm2d(256, eps=1e-05, momentum=0.1, affine=True, track_running_stats=True)      (act): SiLU(inplace=True)    )    (C3_p4): CSPLayer(      (conv1): BaseConv(        (conv): Conv2d(512, 128, kernel_size=(1, 1), stride=(1, 1), bias=False)        (bn): BatchNorm2d(128, eps=1e-05, momentum=0.1, affine=True, track_running_stats=True)        (act): SiLU(inplace=True)      )      (conv2): BaseConv(        (conv): Conv2d(512, 128, kernel_size=(1, 1), stride=(1, 1), bias=False)        (bn): BatchNorm2d(128, eps=1e-05, momentum=0.1, affine=True, track_running_stats=True)        (act): SiLU(inplace=True)      )      (conv3): BaseConv(        (conv): Conv2d(256, 256, kernel_size=(1, 1), stride=(1, 1), bias=False)        (bn): BatchNorm2d(256, eps=1e-05, momentum=0.1, affine=True, track_running_stats=True)        (act): SiLU(inplace=True)      )      (m): Sequential(        (0): Bottleneck(          (conv1): BaseConv(            (conv): Conv2d(128, 128, kernel_size=(1, 1), stride=(1, 1), bias=False)            (bn): BatchNorm2d(128, eps=1e-05, momentum=0.1, affine=True, track_running_stats=True)            (act): SiLU(inplace=True)          )          (conv2): BaseConv(            (conv): Conv2d(128, 128, kernel_size=(3, 3), stride=(1, 1), padding=(1, 1), bias=False)            (bn): BatchNorm2d(128, eps=1e-05, momentum=0.1, affine=True, track_running_stats=True)            (act): SiLU(inplace=True)          )        )      )    )    (reduce_conv1): BaseConv(      (conv): Conv2d(256, 128, kernel_size=(1, 1), stride=(1, 1), bias=False)      (bn): BatchNorm2d(128, eps=1e-05, momentum=0.1, affine=True, track_running_stats=True)      (act): SiLU(inplace=True)    )    (C3_p3): CSPLayer(      (conv1): BaseConv(        (conv): Conv2d(256, 64, kernel_size=(1, 1), stride=(1, 1), bias=False)        (bn): BatchNorm2d(64, eps=1e-05, momentum=0.1, affine=True, track_running_stats=True)        (act): SiLU(inplace=True)      )      (conv2): BaseConv(        (conv): Conv2d(256, 64, kernel_size=(1, 1), stride=(1, 1), bias=False)        (bn): BatchNorm2d(64, eps=1e-05, momentum=0.1, affine=True, track_running_stats=True)        (act): SiLU(inplace=True)      )      (conv3): BaseConv(        (conv): Conv2d(128, 128, kernel_size=(1, 1), stride=(1, 1), bias=False)        (bn): BatchNorm2d(128, eps=1e-05, momentum=0.1, affine=True, track_running_stats=True)        (act): SiLU(inplace=True)      )      (m): Sequential(        (0): Bottleneck(          (conv1): BaseConv(            (conv): Conv2d(64, 64, kernel_size=(1, 1), stride=(1, 1), bias=False)            (bn): BatchNorm2d(64, eps=1e-05, momentum=0.1, affine=True, track_running_stats=True)            (act): SiLU(inplace=True)          )          (conv2): BaseConv(            (conv): Conv2d(64, 64, kernel_size=(3, 3), stride=(1, 1), padding=(1, 1), bias=False)            (bn): BatchNorm2d(64, eps=1e-05, momentum=0.1, affine=True, track_running_stats=True)            (act): SiLU(inplace=True)          )        )      )    )    (bu_conv2): BaseConv(      (conv): Conv2d(128, 128, kernel_size=(3, 3), stride=(2, 2), padding=(1, 1), bias=False)      (bn): BatchNorm2d(128, eps=1e-05, momentum=0.1, affine=True, track_running_stats=True)      (act): SiLU(inplace=True)    )    (C3_n3): CSPLayer(      (conv1): BaseConv(        (conv): Conv2d(256, 128, kernel_size=(1, 1), stride=(1, 1), bias=False)        (bn): BatchNorm2d(128, eps=1e-05, momentum=0.1, affine=True, track_running_stats=True)        (act): SiLU(inplace=True)      )      (conv2): BaseConv(        (conv): Conv2d(256, 128, kernel_size=(1, 1), stride=(1, 1), bias=False)        (bn): BatchNorm2d(128, eps=1e-05, momentum=0.1, affine=True, track_running_stats=True)        (act): SiLU(inplace=True)      )      (conv3): BaseConv(        (conv): Conv2d(256, 256, kernel_size=(1, 1), stride=(1, 1), bias=False)        (bn): BatchNorm2d(256, eps=1e-05, momentum=0.1, affine=True, track_running_stats=True)        (act): SiLU(inplace=True)      )      (m): Sequential(        (0): Bottleneck(          (conv1): BaseConv(            (conv): Conv2d(128, 128, kernel_size=(1, 1), stride=(1, 1), bias=False)            (bn): BatchNorm2d(128, eps=1e-05, momentum=0.1, affine=True, track_running_stats=True)            (act): SiLU(inplace=True)          )          (conv2): BaseConv(            (conv): Conv2d(128, 128, kernel_size=(3, 3), stride=(1, 1), padding=(1, 1), bias=False)            (bn): BatchNorm2d(128, eps=1e-05, momentum=0.1, affine=True, track_running_stats=True)            (act): SiLU(inplace=True)          )        )      )    )    (bu_conv1): BaseConv(      (conv): Conv2d(256, 256, kernel_size=(3, 3), stride=(2, 2), padding=(1, 1), bias=False)      (bn): BatchNorm2d(256, eps=1e-05, momentum=0.1, affine=True, track_running_stats=True)      (act): SiLU(inplace=True)    )    (C3_n4): CSPLayer(      (conv1): BaseConv(        (conv): Conv2d(512, 256, kernel_size=(1, 1), stride=(1, 1), bias=False)        (bn): BatchNorm2d(256, eps=1e-05, momentum=0.1, affine=True, track_running_stats=True)        (act): SiLU(inplace=True)      )      (conv2): BaseConv(        (conv): Conv2d(512, 256, kernel_size=(1, 1), stride=(1, 1), bias=False)        (bn): BatchNorm2d(256, eps=1e-05, momentum=0.1, affine=True, track_running_stats=True)        (act): SiLU(inplace=True)      )      (conv3): BaseConv(        (conv): Conv2d(512, 512, kernel_size=(1, 1), stride=(1, 1), bias=False)        (bn): BatchNorm2d(512, eps=1e-05, momentum=0.1, affine=True, track_running_stats=True)        (act): SiLU(inplace=True)      )      (m): Sequential(        (0): Bottleneck(          (conv1): BaseConv(            (conv): Conv2d(256, 256, kernel_size=(1, 1), stride=(1, 1), bias=False)            (bn): BatchNorm2d(256, eps=1e-05, momentum=0.1, affine=True, track_running_stats=True)            (act): SiLU(inplace=True)          )          (conv2): BaseConv(            (conv): Conv2d(256, 256, kernel_size=(3, 3), stride=(1, 1), padding=(1, 1), bias=False)            (bn): BatchNorm2d(256, eps=1e-05, momentum=0.1, affine=True, track_running_stats=True)            (act): SiLU(inplace=True)          )        )      )    )  )  (head): YOLOXHead(    (cls_convs): ModuleList(      (0-2): 3 x Sequential(        (0): BaseConv(          (conv): Conv2d(128, 128, kernel_size=(3, 3), stride=(1, 1), padding=(1, 1), bias=False)          (bn): BatchNorm2d(128, eps=1e-05, momentum=0.1, affine=True, track_running_stats=True)          (act): SiLU(inplace=True)        )        (1): BaseConv(          (conv): Conv2d(128, 128, kernel_size=(3, 3), stride=(1, 1), padding=(1, 1), bias=False)          (bn): BatchNorm2d(128, eps=1e-05, momentum=0.1, affine=True, track_running_stats=True)          (act): SiLU(inplace=True)        )      )    )    (reg_convs): ModuleList(      (0-2): 3 x Sequential(        (0): BaseConv(          (conv): Conv2d(128, 128, kernel_size=(3, 3), stride=(1, 1), padding=(1, 1), bias=False)          (bn): BatchNorm2d(128, eps=1e-05, momentum=0.1, affine=True, track_running_stats=True)          (act): SiLU(inplace=True)        )        (1): BaseConv(          (conv): Conv2d(128, 128, kernel_size=(3, 3), stride=(1, 1), padding=(1, 1), bias=False)          (bn): BatchNorm2d(128, eps=1e-05, momentum=0.1, affine=True, track_running_stats=True)          (act): SiLU(inplace=True)        )      )    )    (cls_preds): ModuleList(      (0-2): 3 x Conv2d(128, 80, kernel_size=(1, 1), stride=(1, 1))    )    (reg_preds): ModuleList(      (0-2): 3 x Conv2d(128, 4, kernel_size=(1, 1), stride=(1, 1))    )    (obj_preds): ModuleList(      (0-2): 3 x Conv2d(128, 1, kernel_size=(1, 1), stride=(1, 1))    )    (stems): ModuleList(      (0): BaseConv(        (conv): Conv2d(128, 128, kernel_size=(1, 1), stride=(1, 1), bias=False)        (bn): BatchNorm2d(128, eps=1e-05, momentum=0.1, affine=True, track_running_stats=True)        (act): SiLU(inplace=True)      )      (1): BaseConv(        (conv): Conv2d(256, 128, kernel_size=(1, 1), stride=(1, 1), bias=False)        (bn): BatchNorm2d(128, eps=1e-05, momentum=0.1, affine=True, track_running_stats=True)        (act): SiLU(inplace=True)      )      (2): BaseConv(        (conv): Conv2d(512, 128, kernel_size=(1, 1), stride=(1, 1), bias=False)        (bn): BatchNorm2d(128, eps=1e-05, momentum=0.1, affine=True, track_running_stats=True)        (act): SiLU(inplace=True)      )    )    (l1_loss): L1Loss()    (bcewithlog_loss): BCEWithLogitsLoss()    (iou_loss): IOUloss()  ))"], [16.0, "YOLOX(  (backbone): YOLOPAFPN(    (backbone): CSPDarknet(      (stem): Focus(        (conv): BaseConv(          (conv): Conv2d(12, 32, kernel_size=(3, 3), stride=(1, 1), padding=(1, 1), bias=False)          (bn): BatchNorm2d(32, eps=0.001, momentum=0.03, affine=True, track_running_stats=True)          (act): SiLU(inplace=True)        )      )      (dark2): Sequential(        (0): BaseConv(          (conv): Conv2d(32, 64, kernel_size=(3, 3), stride=(2, 2), padding=(1, 1), bias=False)          (bn): BatchNorm2d(64, eps=0.001, momentum=0.03, affine=True, track_running_stats=True)          (act): SiLU(inplace=True)        )        (1): CSPLayer(          (conv1): BaseConv(            (conv): Conv2d(64, 32, kernel_size=(1, 1), stride=(1, 1), bias=False)            (bn): BatchNorm2d(32, eps=0.001, momentum=0.03, affine=True, track_running_stats=True)            (act): SiLU(inplace=True)          )          (conv2): BaseConv(            (conv): Conv2d(64, 32, kernel_size=(1, 1), stride=(1, 1), bias=False)            (bn): BatchNorm2d(32, eps=0.001, momentum=0.03, affine=True, track_running_stats=True)            (act): SiLU(inplace=True)          )          (conv3): BaseConv(            (conv): Conv2d(64, 64, kernel_size=(1, 1), stride=(1, 1), bias=False)            (bn): BatchNorm2d(64, eps=0.001, momentum=0.03, affine=True, track_running_stats=True)            (act): SiLU(inplace=True)          )          (m): Sequential(            (0): Bottleneck(              (conv1): BaseConv(                (conv): Conv2d(32, 32, kernel_size=(1, 1), stride=(1, 1), bias=False)                (bn): BatchNorm2d(32, eps=0.001, momentum=0.03, affine=True, track_running_stats=True)                (act): SiLU(inplace=True)              )              (conv2): BaseConv(                (conv): Conv2d(32, 32, kernel_size=(3, 3), stride=(1, 1), padding=(1, 1), bias=False)                (bn): BatchNorm2d(32, eps=0.001, momentum=0.03, affine=True, track_running_stats=True)                (act): SiLU(inplace=True)              )            )          )        )      )      (dark3): Sequential(        (0): BaseConv(          (conv): Conv2d(64, 128, kernel_size=(3, 3), stride=(2, 2), padding=(1, 1), bias=False)          (bn): BatchNorm2d(128, eps=0.001, momentum=0.03, affine=True, track_running_stats=True)          (act): SiLU(inplace=True)        )        (1): CSPLayer(          (conv1): BaseConv(            (conv): Conv2d(128, 64, kernel_size=(1, 1), stride=(1, 1), bias=False)            (bn): BatchNorm2d(64, eps=0.001, momentum=0.03, affine=True, track_running_stats=True)            (act): SiLU(inplace=True)          )          (conv2): BaseConv(            (conv): Conv2d(128, 64, kernel_size=(1, 1), stride=(1, 1), bias=False)            (bn): BatchNorm2d(64, eps=0.001, momentum=0.03, affine=True, track_running_stats=True)            (act): SiLU(inplace=True)          )          (conv3): BaseConv(            (conv): Conv2d(128, 128, kernel_size=(1, 1), stride=(1, 1), bias=False)            (bn): BatchNorm2d(128, eps=0.001, momentum=0.03, affine=True, track_running_stats=True)            (act): SiLU(inplace=True)          )          (m): Sequential(            (0): Bottleneck(              (conv1): BaseConv(                (conv): Conv2d(64, 64, kernel_size=(1, 1), stride=(1, 1), bias=False)                (bn): BatchNorm2d(64, eps=0.001, momentum=0.03, affine=True, track_running_stats=True)                (act): SiLU(inplace=True)              )              (conv2): BaseConv(                (conv): Conv2d(64, 64, kernel_size=(3, 3), stride=(1, 1), padding=(1, 1), bias=False)                (bn): BatchNorm2d(64, eps=0.001, momentum=0.03, affine=True, track_running_stats=True)                (act): SiLU(inplace=True)              )            )            (1): Bottleneck(              (conv1): BaseConv(                (conv): Conv2d(64, 64, kernel_size=(1, 1), stride=(1, 1), bias=False)                (bn): BatchNorm2d(64, eps=0.001, momentum=0.03, affine=True, track_running_stats=True)                (act): SiLU(inplace=True)              )              (conv2): BaseConv(                (conv): Conv2d(64, 64, kernel_size=(3, 3), stride=(1, 1), padding=(1, 1), bias=False)                (bn): BatchNorm2d(64, eps=0.001, momentum=0.03, affine=True, track_running_stats=True)                (act): SiLU(inplace=True)              )            )            (2): Bottleneck(              (conv1): BaseConv(                (conv): Conv2d(64, 64, kernel_size=(1, 1), stride=(1, 1), bias=False)                (bn): BatchNorm2d(64, eps=0.001, momentum=0.03, affine=True, track_running_stats=True)                (act): SiLU(inplace=True)              )              (conv2): BaseConv(                (conv): Conv2d(64, 64, kernel_size=(3, 3), stride=(1, 1), padding=(1, 1), bias=False)                (bn): BatchNorm2d(64, eps=0.001, momentum=0.03, affine=True, track_running_stats=True)                (act): SiLU(inplace=True)              )            )          )        )      )      (dark4): Sequential(        (0): BaseConv(          (conv): Conv2d(128, 256, kernel_size=(3, 3), stride=(2, 2), padding=(1, 1), bias=False)          (bn): BatchNorm2d(256, eps=0.001, momentum=0.03, affine=True, track_running_stats=True)          (act): SiLU(inplace=True)        )        (1): CSPLayer(          (conv1): BaseConv(            (conv): Conv2d(256, 128, kernel_size=(1, 1), stride=(1, 1), bias=False)            (bn): BatchNorm2d(128, eps=0.001, momentum=0.03, affine=True, track_running_stats=True)            (act): SiLU(inplace=True)          )          (conv2): BaseConv(            (conv): Conv2d(256, 128, kernel_size=(1, 1), stride=(1, 1), bias=False)            (bn): BatchNorm2d(128, eps=0.001, momentum=0.03, affine=True, track_running_stats=True)            (act): SiLU(inplace=True)          )          (conv3): BaseConv(            (conv): Conv2d(256, 256, kernel_size=(1, 1), stride=(1, 1), bias=False)            (bn): BatchNorm2d(256, eps=0.001, momentum=0.03, affine=True, track_running_stats=True)            (act): SiLU(inplace=True)          )          (m): Sequential(            (0): Bottleneck(              (conv1): BaseConv(                (conv): Conv2d(128, 128, kernel_size=(1, 1), stride=(1, 1), bias=False)                (bn): BatchNorm2d(128, eps=0.001, momentum=0.03, affine=True, track_running_stats=True)                (act): SiLU(inplace=True)              )              (conv2): BaseConv(                (conv): Conv2d(128, 128, kernel_size=(3, 3), stride=(1, 1), padding=(1, 1), bias=False)                (bn): BatchNorm2d(128, eps=0.001, momentum=0.03, affine=True, track_running_stats=True)                (act): SiLU(inplace=True)              )            )            (1): Bottleneck(              (conv1): BaseConv(                (conv): Conv2d(128, 128, kernel_size=(1, 1), stride=(1, 1), bias=False)                (bn): BatchNorm2d(128, eps=0.001, momentum=0.03, affine=True, track_running_stats=True)                (act): SiLU(inplace=True)              )              (conv2): BaseConv(                (conv): Conv2d(128, 128, kernel_size=(3, 3), stride=(1, 1), padding=(1, 1), bias=False)                (bn): BatchNorm2d(128, eps=0.001, momentum=0.03, affine=True, track_running_stats=True)                (act): SiLU(inplace=True)              )            )            (2): Bottleneck(              (conv1): BaseConv(                (conv): Conv2d(128, 128, kernel_size=(1, 1), stride=(1, 1), bias=False)                (bn): BatchNorm2d(128, eps=0.001, momentum=0.03, affine=True, track_running_stats=True)                (act): SiLU(inplace=True)              )              (conv2): BaseConv(                (conv): Conv2d(128, 128, kernel_size=(3, 3), stride=(1, 1), padding=(1, 1), bias=False)                (bn): BatchNorm2d(128, eps=0.001, momentum=0.03, affine=True, track_running_stats=True)                (act): SiLU(inplace=True)              )            )          )        )      )      (dark5): Sequential(        (0): BaseConv(          (conv): Conv2d(256, 512, kernel_size=(3, 3), stride=(2, 2), padding=(1, 1), bias=False)          (bn): BatchNorm2d(512, eps=0.001, momentum=0.03, affine=True, track_running_stats=True)          (act): SiLU(inplace=True)        )        (1): SPPBottleneck(          (conv1): BaseConv(            (conv): Conv2d(512, 256, kernel_size=(1, 1), stride=(1, 1), bias=False)            (bn): BatchNorm2d(256, eps=0.001, momentum=0.03, affine=True, track_running_stats=True)            (act): SiLU(inplace=True)          )          (m): ModuleList(            (0): MaxPool2d(kernel_size=5, stride=1, padding=2, dilation=1, ceil_mode=False)            (1): MaxPool2d(kernel_size=9, stride=1, padding=4, dilation=1, ceil_mode=False)            (2): MaxPool2d(kernel_size=13, stride=1, padding=6, dilation=1, ceil_mode=False)          )          (conv2): BaseConv(            (conv): Conv2d(1024, 512, kernel_size=(1, 1), stride=(1, 1), bias=False)            (bn): BatchNorm2d(512, eps=0.001, momentum=0.03, affine=True, track_running_stats=True)            (act): SiLU(inplace=True)          )        )        (2): CSPLayer(          (conv1): BaseConv(            (conv): Conv2d(512, 256, kernel_size=(1, 1), stride=(1, 1), bias=False)            (bn): BatchNorm2d(256, eps=0.001, momentum=0.03, affine=True, track_running_stats=True)            (act): SiLU(inplace=True)          )          (conv2): BaseConv(            (conv): Conv2d(512, 256, kernel_size=(1, 1), stride=(1, 1), bias=False)            (bn): BatchNorm2d(256, eps=0.001, momentum=0.03, affine=True, track_running_stats=True)            (act): SiLU(inplace=True)          )          (conv3): BaseConv(            (conv): Conv2d(512, 512, kernel_size=(1, 1), stride=(1, 1), bias=False)            (bn): BatchNorm2d(512, eps=0.001, momentum=0.03, affine=True, track_running_stats=True)            (act): SiLU(inplace=True)          )          (m): Sequential(            (0): Bottleneck(              (conv1): BaseConv(                (conv): Conv2d(256, 256, kernel_size=(1, 1), stride=(1, 1), bias=False)                (bn): BatchNorm2d(256, eps=0.001, momentum=0.03, affine=True, track_running_stats=True)                (act): SiLU(inplace=True)              )              (conv2): BaseConv(                (conv): Conv2d(256, 256, kernel_size=(3, 3), stride=(1, 1), padding=(1, 1), bias=False)                (bn): BatchNorm2d(256, eps=0.001, momentum=0.03, affine=True, track_running_stats=True)                (act): SiLU(inplace=True)              )            )          )        )      )    )    (upsample): Upsample(scale_factor=2.0, mode='nearest')    (lateral_conv0): BaseConv(      (conv): Conv2d(512, 256, kernel_size=(1, 1), stride=(1, 1), bias=False)      (bn): BatchNorm2d(256, eps=0.001, momentum=0.03, affine=True, track_running_stats=True)      (act): SiLU(inplace=True)    )    (C3_p4): CSPLayer(      (conv1): BaseConv(        (conv): Conv2d(512, 128, kernel_size=(1, 1), stride=(1, 1), bias=False)        (bn): BatchNorm2d(128, eps=0.001, momentum=0.03, affine=True, track_running_stats=True)        (act): SiLU(inplace=True)      )      (conv2): BaseConv(        (conv): Conv2d(512, 128, kernel_size=(1, 1), stride=(1, 1), bias=False)        (bn): BatchNorm2d(128, eps=0.001, momentum=0.03, affine=True, track_running_stats=True)        (act): SiLU(inplace=True)      )      (conv3): BaseConv(        (conv): Conv2d(256, 256, kernel_size=(1, 1), stride=(1, 1), bias=False)        (bn): BatchNorm2d(256, eps=0.001, momentum=0.03, affine=True, track_running_stats=True)        (act): SiLU(inplace=True)      )      (m): Sequential(        (0): Bottleneck(          (conv1): BaseConv(            (conv): Conv2d(128, 128, kernel_size=(1, 1), stride=(1, 1), bias=False)            (bn): BatchNorm2d(128, eps=0.001, momentum=0.03, affine=True, track_running_stats=True)            (act): SiLU(inplace=True)          )          (conv2): BaseConv(            (conv): Conv2d(128, 128, kernel_size=(3, 3), stride=(1, 1), padding=(1, 1), bias=False)            (bn): BatchNorm2d(128, eps=0.001, momentum=0.03, affine=True, track_running_stats=True)            (act): SiLU(inplace=True)          )        )      )    )    (reduce_conv1): BaseConv(      (conv): Conv2d(256, 128, kernel_size=(1, 1), stride=(1, 1), bias=False)      (bn): BatchNorm2d(128, eps=0.001, momentum=0.03, affine=True, track_running_stats=True)      (act): SiLU(inplace=True)    )    (C3_p3): CSPLayer(      (conv1): BaseConv(        (conv): Conv2d(256, 64, kernel_size=(1, 1), stride=(1, 1), bias=False)        (bn): BatchNorm2d(64, eps=0.001, momentum=0.03, affine=True, track_running_stats=True)        (act): SiLU(inplace=True)      )      (conv2): BaseConv(        (conv): Conv2d(256, 64, kernel_size=(1, 1), stride=(1, 1), bias=False)        (bn): BatchNorm2d(64, eps=0.001, momentum=0.03, affine=True, track_running_stats=True)        (act): SiLU(inplace=True)      )      (conv3): BaseConv(        (conv): Conv2d(128, 128, kernel_size=(1, 1), stride=(1, 1), bias=False)        (bn): BatchNorm2d(128, eps=0.001, momentum=0.03, affine=True, track_running_stats=True)        (act): SiLU(inplace=True)      )      (m): Sequential(        (0): Bottleneck(          (conv1): BaseConv(            (conv): Conv2d(64, 64, kernel_size=(1, 1), stride=(1, 1), bias=False)            (bn): BatchNorm2d(64, eps=0.001, momentum=0.03, affine=True, track_running_stats=True)            (act): SiLU(inplace=True)          )          (conv2): BaseConv(            (conv): Conv2d(64, 64, kernel_size=(3, 3), stride=(1, 1), padding=(1, 1), bias=False)            (bn): BatchNorm2d(64, eps=0.001, momentum=0.03, affine=True, track_running_stats=True)            (act): SiLU(inplace=True)          )        )      )    )    (bu_conv2): BaseConv(      (conv): Conv2d(128, 128, kernel_size=(3, 3), stride=(2, 2), padding=(1, 1), bias=False)      (bn): BatchNorm2d(128, eps=0.001, momentum=0.03, affine=True, track_running_stats=True)      (act): SiLU(inplace=True)    )    (C3_n3): CSPLayer(      (conv1): BaseConv(        (conv): Conv2d(256, 128, kernel_size=(1, 1), stride=(1, 1), bias=False)        (bn): BatchNorm2d(128, eps=0.001, momentum=0.03, affine=True, track_running_stats=True)        (act): SiLU(inplace=True)      )      (conv2): BaseConv(        (conv): Conv2d(256, 128, kernel_size=(1, 1), stride=(1, 1), bias=False)        (bn): BatchNorm2d(128, eps=0.001, momentum=0.03, affine=True, track_running_stats=True)        (act): SiLU(inplace=True)      )      (conv3): BaseConv(        (conv): Conv2d(256, 256, kernel_size=(1, 1), stride=(1, 1), bias=False)        (bn): BatchNorm2d(256, eps=0.001, momentum=0.03, affine=True, track_running_stats=True)        (act): SiLU(inplace=True)      )      (m): Sequential(        (0): Bottleneck(          (conv1): BaseConv(            (conv): Conv2d(128, 128, kernel_size=(1, 1), stride=(1, 1), bias=False)            (bn): BatchNorm2d(128, eps=0.001, momentum=0.03, affine=True, track_running_stats=True)            (act): SiLU(inplace=True)          )          (conv2): BaseConv(            (conv): Conv2d(128, 128, kernel_size=(3, 3), stride=(1, 1), padding=(1, 1), bias=False)            (bn): BatchNorm2d(128, eps=0.001, momentum=0.03, affine=True, track_running_stats=True)            (act): SiLU(inplace=True)          )        )      )    )    (bu_conv1): BaseConv(      (conv): Conv2d(256, 256, kernel_size=(3, 3), stride=(2, 2), padding=(1, 1), bias=False)      (bn): BatchNorm2d(256, eps=0.001, momentum=0.03, affine=True, track_running_stats=True)      (act): SiLU(inplace=True)    )    (C3_n4): CSPLayer(      (conv1): BaseConv(        (conv): Conv2d(512, 256, kernel_size=(1, 1), stride=(1, 1), bias=False)        (bn): BatchNorm2d(256, eps=0.001, momentum=0.03, affine=True, track_running_stats=True)        (act): SiLU(inplace=True)      )      (conv2): BaseConv(        (conv): Conv2d(512, 256, kernel_size=(1, 1), stride=(1, 1), bias=False)        (bn): BatchNorm2d(256, eps=0.001, momentum=0.03, affine=True, track_running_stats=True)        (act): SiLU(inplace=True)      )      (conv3): BaseConv(        (conv): Conv2d(512, 512, kernel_size=(1, 1), stride=(1, 1), bias=False)        (bn): BatchNorm2d(512, eps=0.001, momentum=0.03, affine=True, track_running_stats=True)        (act): SiLU(inplace=True)      )      (m): Sequential(        (0): Bottleneck(          (conv1): BaseConv(            (conv): Conv2d(256, 256, kernel_size=(1, 1), stride=(1, 1), bias=False)            (bn): BatchNorm2d(256, eps=0.001, momentum=0.03, affine=True, track_running_stats=True)            (act): SiLU(inplace=True)          )          (conv2): BaseConv(            (conv): Conv2d(256, 256, kernel_size=(3, 3), stride=(1, 1), padding=(1, 1), bias=False)            (bn): BatchNorm2d(256, eps=0.001, momentum=0.03, affine=True, track_running_stats=True)            (act): SiLU(inplace=True)          )        )      )    )  )  (head): YOLOXHead(    (cls_convs): ModuleList(      (0-2): 3 x Sequential(        (0): BaseConv(          (conv): Conv2d(128, 128, kernel_size=(3, 3), stride=(1, 1), padding=(1, 1), bias=False)          (bn): BatchNorm2d(128, eps=0.001, momentum=0.03, affine=True, track_running_stats=True)          (act): SiLU(inplace=True)        )        (1): BaseConv(          (conv): Conv2d(128, 128, kernel_size=(3, 3), stride=(1, 1), padding=(1, 1), bias=False)          (bn): BatchNorm2d(128, eps=0.001, momentum=0.03, affine=True, track_running_stats=True)          (act): SiLU(inplace=True)        )      )    )    (reg_convs): ModuleList(      (0-2): 3 x Sequential(        (0): BaseConv(          (conv): Conv2d(128, 128, kernel_size=(3, 3), stride=(1, 1), padding=(1, 1), bias=False)          (bn): BatchNorm2d(128, eps=0.001, momentum=0.03, affine=True, track_running_stats=True)          (act): SiLU(inplace=True)        )        (1): BaseConv(          (conv): Conv2d(128, 128, kernel_size=(3, 3), stride=(1, 1), padding=(1, 1), bias=False)          (bn): BatchNorm2d(128, eps=0.001, momentum=0.03, affine=True, track_running_stats=True)          (act): SiLU(inplace=True)        )      )    )    (cls_preds): ModuleList(      (0-2): 3 x Conv2d(128, 80, kernel_size=(1, 1), stride=(1, 1))    )    (reg_preds): ModuleList(      (0-2): 3 x Conv2d(128, 4, kernel_size=(1, 1), stride=(1, 1))    )    (obj_preds): ModuleList(      (0-2): 3 x Conv2d(128, 1, kernel_size=(1, 1), stride=(1, 1))    )    (stems): ModuleList(      (0): BaseConv(        (conv): Conv2d(128, 128, kernel_size=(1, 1), stride=(1, 1), bias=False)        (bn): BatchNorm2d(128, eps=0.001, momentum=0.03, affine=True, track_running_stats=True)        (act): SiLU(inplace=True)      )      (1): BaseConv(        (conv): Conv2d(256, 128, kernel_size=(1, 1), stride=(1, 1), bias=False)        (bn): BatchNorm2d(128, eps=0.001, momentum=0.03, affine=True, track_running_stats=True)        (act): SiLU(inplace=True)      )      (2): BaseConv(        (conv): Conv2d(512, 128, kernel_size=(1, 1), stride=(1, 1), bias=False)        (bn): BatchNorm2d(128, eps=0.001, momentum=0.03, affine=True, track_running_stats=True)        (act): SiLU(inplace=True)      )    )    (l1_loss): L1Loss()    (bcewithlog_loss): BCEWithLogitsLoss()    (iou_loss): IOUloss()  ))"]]}, "Program Information": "Project Name: Megvii-BaseDetection+YOLOX", "idx": 179, "quantized value": "Mixed String", "mapping_info": {"len(value) == 0": "Empty String", "len(value) > 0 and value.isalpha()": "Alphabetic String", "len(value) > 0 and value.isdigit()": "Numeric String", "len(value) > 0 and not (value.isalpha() or value.isdigit())": "Mixed String"}}
…
ct()\n    lora_model = AdapterV2GPT.from_name(name, **kwargs, adapter_start_layer=0)\n    keys = lora_model.load_state_dict(base_model_state_dict, strict=False)\n    assert not keys.unexpected_keys\n    for k in keys.missing_keys:\n        assert adapter_filter(k, None)\n\ntest_base_model_can_be_adapter_v2_loaded(name='stablelm-base-alpha-3b')", "Selected Statement": "base_model = BaseGPT.from_name(name, **kwargs)", "Function Input": {"name": "'stablelm-base-alpha-3b'"}, "Variable Values Before Statement": {"name": "'stablelm-base-alpha-3b'"}, "Value After Statement Execution": "GPT(  (lm_head): Linear(in_features", "Variable States During Runtime": {"name": [[1, "'stablelm-base-alpha-3b'"]], "AdapterV2GPT": [[2.0, "<class 'lit_gpt.adapter_v2.GPT'>"]], "adapter_filter": [[3.0, "<function adapter_filter at 0x7f801db68af0>"]], "BaseGPT": [[4.0, "<class 'lit_gpt.model.GPT'>"]], "kwargs": [[6.0, "{'n_layer': 2, 'n_head': 8, 'n_embd': 16, 'padded_vocab_size': 32}"]], "base_model": [[7.0, "GPT(  (lm_head): Linear(in_features=16, out_features=32, bias=False)  (transformer): ModuleDict(    (wte): Embedding(32, 16)    (h): ModuleList(      (0-1): 2 x Block(        (norm_1): LayerNorm((16,), eps=1e-05, elementwise_affine=True)        (attn): CausalSelfAttention(          (attn): Linear(in_features=16, out_features=48, bias=True)          (proj): Linear(in_features=16, out_features=16, bias=True)        )        (norm_2): LayerNorm((16,), eps=1e-05, elementwise_affine=True)        (mlp): GptNeoxMLP(          (fc): Linear(in_features=16, out_features=64, bias=True)          (proj): Linear(in_features=64, out_features=16, bias=True)        )      )    )    (ln_f): LayerNorm((16,), eps=1e-05, elementwise_affine=True)  ))"]], "base_model_state_dict": [[8.0, "OrderedDict([('lm_head.weight', tensor([[… ...… )), ('transformer.h.1.attn.proj.bias', tensor([… )), ('transformer.h.1.norm_2.weight', tensor([1., 1., 1., 1., 1., 1., 1., 1., 1., 1., 1., 1., 1., 1., 1., 1.])), ('transformer.h.1.norm_2.bias', tensor([0., 0., 0., 0., 0., 0., 0., 0., 0., 0., 0., 0., 0., 0., 0., 0.])),
…
6, -0.0217, -0.0052,  ...,  0.0668, -0.0339,  0.1202],        ...,        [-0.0757, -0.0012,  0.0383,  ..., -0.0417, -0.0944, -0.0468],        [ 0.0752, -0.0184,  0.0511,  ..., -0.0576, -0.0293,  0.0188],        [-0.0496, -0.0871, -0.0883,  ..., -0.1221,  0.0080,  0.0647]])), ('transformer.h.1.mlp.proj.bias', tensor([… )), ('transformer.ln_f.weight', tensor([1., 1., 1., 1., 1., 1., 1., 1., 1., 1., 1., 1., 1., 1., 1., 1.])), ('transformer.ln_f.bias', tensor([0., 0., 0., 0., 0., 0., 0., 0., 0., 0., 0., 0., 0., 0., 0., 0.]))])"]], "lora_model": [[9.0, "GPT(  (lm_head): AdapterV2Linear(    (linear): Linear(in_features=16, out_features=32, bias=False)  )  (transformer): ModuleDict(    (wte): Embedding(32, 16)    (h): ModuleList(      (0-1): 2 x Block(        (norm_1): LayerNorm((16,), eps=1e-05, elementwise_affine=True)        (attn): CausalSelfAttention(          (attn): AdapterV2Linear(            (linear): Linear(in_features=16, out_features=48, bias=True)          )          (proj): AdapterV2Linear(            (linear): Linear(in_features=16, out_features=16, bias=True)          )          (adapter_wte): Embedding(10, 16)        )        (norm_2): LayerNorm((16,), eps=1e-05, elementwise_affine=True)        (mlp): GptNeoxMLP(          (fc): AdapterV2Linear(            (linear): Linear(in_features=16, out_features=64, bias=True)          )          (proj): AdapterV2Linear(            (linear): Linear(in_features=64, out_features=16, bias=True)          )        )      )    )    (ln_f): LayerNorm((16,), eps=1e-05, elementwise_affine=True)  ))"]], "keys": [[10.0, "_IncompatibleKeys(missing_keys=['lm_head.adapter_bias', 'lm_head.adapter_scale', 'transformer.h.0.attn.gating_factor', 'transformer.h.0.attn.attn.adapter_bias', 'transformer.h.0.attn.attn.adapter_scale', 'transformer.h.0.attn.proj.adapter_bias', 'transformer.h.0.attn.proj.adapter_scale', 'transformer.h.0.attn.adapter_wte.weight', 
…
) or value.isdigit())": "Mixed String"}}
{"Programming Language": "Python", "Statement Type": "Constant Assignment", "Source Code": "def num_parameters(module: nn.Module, requires_grad: Optional[bool] = None) -> int:\n    total = 0\n    for p in module.parameters():\n        if requires_grad is None or p.requires_grad == requires_grad:\n            if hasattr(p, \"quant_state\"):\n                # bitsandbytes 4bit layer support\n                total += math.prod(p.quant_state[1])\n            else:\n                total += p.numel()\n    return total\n\nnum_parameters(module=GPT(  (lm_head): Linear(in_features=8, out_features=8, bias=False)  (transformer): ModuleDict(    (wte): Embedding(8, 8)    (h): ModuleList(      (0-1): 2 x Block(        (norm_1): LayerNorm((8,), eps=1e-05, elementwise_affine=True)        (attn): CausalSelfAttention(          (attn): Linear(in_features=8, out_features=24, bias=True)          (proj): Linear(in_features=8, out_features=8, bias=True)          (adapter_wte): Embedding(10, 8)        )        (norm_2): LayerNorm((8,), eps=1e-05, elementwise_affine=True)        (mlp): GptNeoxMLP(          (fc): Linear(in_features=8, out_features=32, bias=True)          (proj): Linear(in_features=32, out_features=8, bias=True)        )      )    )    (ln_f): LayerNorm((8,), eps=1e-05, elementwise_affine=True)  )), requires_grad=True)", "Selected Statement": "total = 0", "Function Input": {"module": "GPT(  (lm_head): Linear(in_features=8, out_features=8, bias=False)  (transformer): ModuleDict(    (wte): Embedding(8, 8)    (h): ModuleList(      (0-1): 2 x Block(        (norm_1): LayerNorm((8,), eps=1e-05, elementwise_affine=True)        (attn): CausalSelfAttention(          (attn): Linear(in_features=8, out_features=24, bias=True)          (proj): Linear(in_features=8, out_features=8, bias=True)          (adapter_wte): Embedding(10, 8)        )        (norm_2): LayerNorm((8,), eps=1e-05, elementwise_affine=True)        (mlp): GptNeoxMLP(          (fc): Linear(in_features=8, out_features=32, bias=True)          (proj): Linear(in_features=32, out_features=8, bias=True)        )      )    )    (ln_f): LayerNorm((8,), eps=1e-05, elementwise_affine=True)  ))", "requires_grad": "True"}, "Variable Values Before Statement": {"Constant": "0"}, "Value After Statement Execution": "0", "Variable States During Runtime": {"module": [[1, "GPT(  (lm_head): Linear(in_features=8, out_features=8, bias=False)  (transformer): ModuleDict(    (wte): Embedding(8, 8)    (h): ModuleList(      (0-1): 2 x Block(        (norm_1): LayerNorm((8,), eps=1e-05, elementwise_affine=True)        (attn): CausalSelfAttention(          (attn): Linear(in_features=8, out_features=24, bias=True)          (proj): Linear(in_features=8, out_features=8, bias=True)          (adapter_wte): Embedding(10, 8)        )        (norm_2): LayerNorm((8,), eps=1e-05, elementwise_affine=True)        (mlp): GptNeoxMLP(          (fc): Linear(in_features=8, out_features=32, bias=True)          (proj): Linear(in_features=32, out_features=8, bias=True)        )      )    )    (ln_f): LayerNorm((8,), eps=1e-05, elementwise_affine=True)  ))"]], "requires_grad": [[1, "True"]], "total": [[2.0, "0"], [9.0, "4"], [9.0, "84"], [9.0, "88"], [9.0, "168"]], "p": [[3.0, "Parameter containing:tensor([[ … device='cuda:0')"], [3.0, "Parameter containing:tensor([[… device='cuda:0')"], [3.0, "Parameter containing:tensor([1., 1., 1., 1., 1., 1., 1., 1.], device='cuda:0')"], [3.0, "Parameter containing:t
…
